task2_4/policies/policy400_true_0.3.pth (torch, 150747 bytes, 5 tensors)

log_std f4 [2]
-0.013314915 -0.04466481
00000000: cd26 5abc 73f2 36bd

net.0.weight f4 [128, 288]
0.023692492 0.054986246 -0.049188226 0.03774695 -0.009841817 0.024205122 0.044240594 -0.020856889
-0.0409523 -0.0040767416 -0.047116935 0.013365988 0.042250633 -0.0027319929 -0.04571363 0.041928332
-0.06257093 -0.0042289253 0.004809515 0.01975535 0.0074737864 0.028573543 -0.05490525 0.006820087
0.03394609 0.02047599 -0.04919045 0.0067203077 0.018130668 0.018351372 -0.0070400583 -0.040368598
-0.05491962 0.039237328 0.019094732 -0.018356442 0.029439375 -0.0042899125 0.0150160175 0.020126287
-0.01704796 -0.0553545 -0.046494205 -0.039212238 -0.05360868 -0.040109303 -0.01627926 0.026994267
-0.030573357 -0.0144832255 0.0062181856 -0.059908856 0.030591335 0.019276705 0.010051161 0.0031953657
-0.03615729 0.058597907 -0.023601225 0.019640308 0.028683286 0.0005942302 -0.017415235 0.0548739
-0.04916774 0.016488185 -0.050770994 0.02099833 -0.05937869 0.046186633 -0.058839932 0.032868292
-0.040465955 0.06559709 -0.038813032 0.065338925 0.00036658745 -0.003581731 0.05685095 -0.0016851786
0.019073313 0.0013179282 -0.013306159 0.014830682 0.064210646 -0.026296658 -0.011665317 -0.023314677
0.029300971 0.05249172 0.050800543 0.06347596 -0.05956514 0.05977521 -0.030558484 0.02135629
-0.023398401 -0.04743139 -0.002392634 0.014357335 -0.0278245 -0.065978095 -0.070927195 -0.007320261
0.0075808773 -0.025537109 0.00883133 -0.011581873 0.034783855 -0.04192962 0.04118253 0.04479241
0.057838276 0.04457964 -0.014463329 -0.016795397 0.0523406 -0.032240566 -0.035939157 0.03194145
-0.044745363 0.029985722 -0.02776222 -0.029910421 -0.027471576 -0.011338768 0.058509797 -0.017592225
0.048725918 0.052399404 0.0049706693 -0.043287855 -0.0412373 0.03415912 -0.016470287 0.048807044
-0.047649544 -0.04599527 0.018528972 -0.008441674 0.043350954 -0.017410215 0.008814801 -0.07150505
-0.009868029 -0.04568534 0.0008063965 0.068725094 -0.004903444 -0.0028626067 0.060597815 0.018669715
0.056218345 0.041564334 -0.0007350892 -0.0069611333 -0.03458633 -0.025298439 0.0025300605 -0.0017714459
-0.0030695635 -0.004907871 0.032068152 0.017829053 0.049583517 -0.0131370425 0.0168948 0.048369814
-0.03250355 -0.020140663 0.053111833 0.05636505 0.053512126 0.002106759 0.055341948 -0.016317662
0.023774708 -0.00844669 -0.037252206 -0.011922505 -0.029762043 0.006828142 0.024474679 0.006321743
0.013463859 0.05267813 -0.036679864 -0.034928206 0.031868495 0.05370919 0.07974506 0.070255846
-0.011648594 -0.025268335 0.00016358166 -0.003919454 0.045716465 0.032541923 -0.025174411 0.0017298663
-0.004237954 0.016809875 0.0440437 -0.045415767 0.06395709 -0.02655395 0.041868217 -0.06438292
-0.011029483 0.014505713 -0.034268778 -0.041922383 0.078844056 -0.002399119 0.051875472 0.009549183
-0.05162831 -0.037288513 -0.03252176 -0.07050624 0.03073607 0.000624264 -0.0328207 0.06341409
-0.016643982 0.056493603 0.038451955 0.050922137 -0.034741413 -0.054882128 -0.06846279 -0.030461537
-0.038799003 -0.035089403 -0.042669013 0.029277537 -0.018384812 0.044226997 0.0013211528 0.06805601
0.055600192 0.016671874 0.01729965 -0.03656857 -0.010802737 0.040851153 0.02209408 0.037837427
0.05481696 0.07347967 0.06278277 -0.017665261 -0.043901097 -0.055890825 -0.055726122 -0.016205437
00000000: c216 c23c 4239 613d 9879 49bd 8c9c 1a3d
00000010: 933f 21bc d249 c63c a035 353d 11dc aabc
00000020: 99bd 27bd 3096 85bb b0fd 40bd 04fd 5a3c
00000030: 000f 2d3d 3c0b 33bb 373e 3bbd 0bbd 2b3d
00000040: 3025 80bd cc92 8abb 2399 9d3b f9d5 a13c
00000050: aae6 f43b 1013 ea3c 54e4 60bd 097b df3b
00000060: 0e0b 0b3d 43bd a73c ed7b 49bd 0736 dc3b
00000070: c486 943c 9e55 963c 4ab0 e6bb 8b59 25bd
00000080: 65f3 60bd 52b7 203d 8e6c 9c3c 4060 96bc
00000090: d82a f13c 6592 8cbb be05 763c e2df a43c
000000a0: 2aa8 8bbc 66bb 62bd b570 3ebd 039d 20bd
000000b0: c694 5bbd a749 24bd 155c 85bc 1523 dd3c
000000c0: fa74 fabc 0d4b 6dbc ecc1 cb3b fd62 75bd
000000d0: ae9a fa3c 2eea 9d3c a0ad 243c 5769 513b
000000e0: ab19 14bd 5c04 703d 5b57 c1bc b6e4 a03c
000000f0: 36f9 ea3c 1dc6 1b3a 65aa 8ebc 74c3 603d
00000100: 1d64 49bd 3b12 873c 3ff5 4fbd b104 ac3c
00000110: 1237 73bd 322e 3d3d 2402 71bd e7a0 063d
00000120: a1bf 25bd c457 863d 6afa 1ebd 6ad0 853d
00000130: 8932 c039 7abb 6abb 8bdc 683d 36e1 dcba
00000140: a33f 9c3c 55be ac3a 1302 5abc 64fc 723c
00000150: df80 833d 176c d7bc e31f 3fbc 6cfe bebc
00000160: 9708 f03c 8f01 573d 3b14 503d afff 813d
00000170: 94fa 73bd dad6 743d c955 fabc 63f3 ae3c
00000180: 01ae bfbc 6b47 42bd bdcd 1cbb 073b 6b3c
00000190: 35f0 e3bc 861f 87bd 4742 91bd cdde efbb
000001a0: 0269 f83b 3333 d1bc 48b1 103c e5c1 3dbc
000001b0: 8479 0e3d 65be 2bbd 03af 283d 3f78 373d
000001c0: d4e7 6c3d 2499 363d 99f7 6cbc 8096 89bc
000001d0: 1963 563d af0e 04bd f034 13bd 0ad5 023d
000001e0: ea46 37bd 9ea4 f53c 986d e3bc b306 f5bc
000001f0: 120c e1bc 3dc6 39bc f8a7 6f3d 921d 90bc
00000200: d494 473d c2a0 563d ffe0 a23b 9b4e 31bd
00000210: 71e8 28bd 6fea 0b3d b2ec 86bc e5e9 473d
00000220: 2b2c 43bd 8965 3cbd 12ca 973c f24e 0abc
00000230: c590 313d de9f 8ebc f56b 103c 3d71 92bd
00000240: 83ad 21bc 8d20 3bbd 5a64 533a bebf 8c3d
00000250: 12ad a0bb 929a 3bbb 6a35 783d 3bf1 983c
00000260: 3545 663d 5d3f 2a3d 00b3 40ba 381a e4bb
00000270: 65aa 0dbd ac3e cfbc 5fcf 253b dc2f e8ba
00000280: bb2a 49bb 35d2 a0bb e559 033d 3c0e 923c
00000290: 1618 4b3d c03c 57bc f766 8a3c 6d1f 463d
000002a0: 7122 05bd 08fe a4bc cb8b 593d 0adf 663d
000002b0: 882f 5b3d 8d11 0a3b 3dae 623d 9eac 85bc
000002c0: 2dc3 c23c fc63 0abc c595 18bd 9c56 43bc
000002d0: 87cf f3bc 9bbe df3b 1f7f c83c a026 cf3b
000002e0: 8597 5c3c 06c5 573d a03d 16bd e110 0fbd
000002f0: 8a88 023d 2bfe 5b3d 6151 a33d 4ce2 8f3d
00000300: bfd9 3ebc 8aff cebc 1e87 2b39 c36e 80bb
00000310: 3041 3b3d ae4a 053d 913a cebc aebc e23a
00000320: 89de 8abb ddb4 893c 2b67 343d e205 3abd
00000330: effb 823d ab87 d9bc 027e 2b3d 31db 83bd
00000340: 01b5 34bc 5fa9 6d3c 6b5d 0cbd ceb6 2bbd
00000350: fe78 a13d 8a3a 1dbb 607b 543d 2d74 1c3c
00000360: 3578 53bd d7bb 18bd 8935 05bd 9365 90bd
00000370: 36ca fb3c a6a5 233a 006f 06bd 3fdf 813d
00000380: f658 88bc d665 673d cc7f 1d3d bb93 503d
00000390: 034d 0ebd 15cc 60bd 3836 8cbd 798a f9bc
000003a0: b4eb 1ebd e8b9 0fbd b4c5 2ebd 72d7 ef3c
000003b0: bf9b 96bc 5e27 353d 882a ad3a f360 8b3d
000003c0: 07bd 633d 7493 883c ffb7 8d3c edc8 15bd
000003d0: f7fd 30bc 8a53 273d a5fe b43c 6bfb 1a3d
000003e0: c087 603d 827c 963d 4194 803d bdb6 90bc
000003f0: a3d1 33bd c7ed 64bd 1341 64bd 44c1 84bc

net.0.bias f4 [128]
0.009002568 -0.04898745 -0.027069679 0.008936085 0.058662627 -0.060961552 -0.05813863 -0.05058592
-0.010994319 0.027094707 0.00787977 -0.04137971 -0.045197938 0.07770558 0.033822257 -0.022735972
0.032658145 -0.020042775 0.008442585 -0.025433976 -0.033443224 -0.030520443 0.012117045 -0.041198913
-0.036134724 -0.00033096396 -0.051333413 0.019628739 -0.047453426 -0.0108010685 -0.030655138 -0.053884793
0.0046848613 -0.03219678 0.024257025 0.0059613283 -0.037071552 0.026798364 -0.046478912 0.0058322186
-0.020000756 -0.028654521 0.08729132 0.06340468 -0.0007601613 -0.04437529 -0.017625611 0.016287379
-0.0121596465 -0.01915477 -0.0102069 0.020363092 -0.059442155 0.04827759 0.0378356 9.262951e-05
-0.032513734 0.041536834 -0.0025598323 0.01818583 0.02631384 0.03119931 -0.04485001 -0.017864827
0.0474103 -0.041888434 -0.052492283 -0.024012504 -0.0125290835 -0.026748084 0.016579082 0.00341854
-0.028896146 0.07865937 0.0048222956 0.03161565 0.02364863 -0.020075914 -0.03548966 0.0254574
0.017455123 0.017440131 -0.00020519935 0.05208536 -0.009779296 -0.0105206035 -0.042614862 -0.028442835
-0.020728875 0.06502944 0.022810759 -0.020593263 -0.054542087 0.043086227 -0.046372406 -0.049019333
0.020159394 -0.063818164 -0.05154602 -0.026792876 0.055933665 -0.020230781 0.017770117 -0.009476218
-0.04303999 -0.028117727 -0.066309325 -0.06861234 0.075826876 -0.039305355 -0.028712183 0.034238514
-0.029015055 -0.04994998 -0.030812295 0.04286852 0.010510368 -0.005643443 0.0679985 0.036952853
0.0111304065 -0.015963444 0.064890824 -0.025072454 -0.03584155 0.06335964 -0.051122863 -0.011460512
00000000: 827f 133c 10a7 48bd 3bc1 ddbc a868 123c
00000010: 3948 703d d2b2 79bd c622 6ebd 2f33 4fbd
00000020: 8421 34bc b8f5 dd3c 271a 013c c57d 29bd
00000030: 7921 39bd 1a24 9f3d 3589 0a3d ca40 babc
00000040: 8cc4 053d bf30 a4bc c552 0a3c ea5a d0bc
00000050: c3fb 08bd 0206 fabc 9286 463c 31c0 28bd
00000060: 0102 14bd 3b85 adb9 fc42 52bd 73cc a03c
00000070: 865e 42bd f7f6 30bc 7c20 fbbc 4db6 5cbd
00000080: 7783 993b c5e0 03bd abb6 c63c 3f57 c33b
00000090: 57d8 17bd 3e88 db3c ac60 3ebd 321c bf3b
000000a0: a0d8 a3bc e3bc eabc cbc5 b23d 50da 813d
000000b0: 9045 47ba ddc2 35bd 9663 90bc 1c6d 853c
000000c0: 4139 47bc 77ea 9cbc d73a 27bc 80d0 a63c
000000d0: 9e79 73bd b9be 453d 81f9 1a3d 1742 c238
000000e0: 1f2d 05bd 8722 2a3d dcc2 27bb 73fa 943c
000000f0: 1f90 d73c b295 ff3c a5b4 37bd 4259 92bc
00000100: 4d31 423d 3593 2bbd 2602 57bd dfb5 c4bc
00000110: c946 4dbc cc1e dbbc dbd0 873c 9609 603b
00000120: 9cb7 ecbc 2a18 a13d 5904 9e3b 697f 013d
00000130: c6ba c13c 3e76 a4bc 9b5d 11bd 0a8c d03c
00000140: 0cfe 8e3c 9bde 8e3c c82a 57b9 7557 553d
00000150: 5739 20bc 9c5e 2cbc ec8c 2ebd f300 e9bc
00000160: 9acf a9bc 282e 853d a1dd ba3c 34b3 a8bc
00000170: 8667 5fbd 2f7b 303d fef0 3dbd 7fc8 48bd
00000180: 5025 a53c 19b3 82bd eb21 53bd bc7c dbbc
00000190: b31a 653d 06bb a5bc a392 913c 2442 1bbc
000001a0: b34a 30bd 2657 e6bc 2fcd 87bd a084 8cbd
000001b0: 1f4b 9b3d a7fe 20bd d035 ebbc af3d 0c3d
000001c0: fbb0 edbc 5a98 4cbd 116a fcbc e796 2f3d
000001d0: ae33 2c3c a2ec b8bb cc42 8b3d e05b 173d
000001e0: 4f5c 363c c5c5 82bc 7be5 843d bf64 cdbc
000001f0: 97ce 12bd b3c2 813d 3566 51bd dfc4 3bbc

net.2.weight f4 [2, 128]
0.041594516 -0.0736946 0.01780957 0.07620388 0.036310684 -0.043224547 0.0015026499 -0.023860281
-0.047779296 0.025553182 -0.06972522 -0.033981804 -0.052173294 0.029206667 -0.0072710146 -0.06808927
-0.07767127 0.07257392 0.07273528 -0.023392456 0.01793402 -0.05137546 0.04275127 0.02002416
0.055957872 -0.046533685 -0.015282449 0.08321666 -0.06639828 0.018043486 0.013251142 0.044138044
-0.046252843 -0.020758307 -0.045999404 0.08640473 -0.019129302 -0.016085621 -0.0427924 0.03232918
0.016504757 0.039159767 -0.008880344 -0.003281567 0.0004918394 0.019080648 -0.08451616 -0.0035617717
-0.0064057643 -0.008202965 -0.007666597 0.037439454 -0.05285601 -0.052691117 0.03470827 -0.06096908
-0.055053245 -0.06298044 0.041364737 0.035065826 -0.018545125 0.07768735 0.084987655 0.070711225
0.07778015 0.048869763 -0.022438066 -0.035405073 -0.02246623 -0.033132594 -0.08879372 0.06010616
-0.024039743 -0.022670643 0.0054731797 0.018279882 0.08158062 0.017043766 -0.0035277922 0.025937254
-0.06774474 0.021650067 -0.08170499 0.055497643 0.010880541 -0.08535784 -0.0010308234 0.03586558
0.027368093 -0.0022419433 0.083398536 -0.06732234 -0.014677506 -0.06680284 0.05253479 0.057441164
0.07102445 -0.026479572 0.057718247 0.008950704 0.05814692 -0.062070474 0.049987655 0.08364129
-0.014687643 -0.03899929 -0.022149077 0.06428183 0.0028086782 0.011610459 -0.0728963 0.029628271
-0.02922992 0.01302958 -0.085547425 0.06519923 0.0018810313 -0.05155926 -0.014874323 0.07337062
-0.011008162 0.072399326 -0.07238586 -0.06527237 0.06503401 -0.031167472 -0.019582564 -0.038486563
0.070289105 0.067787245 -0.06441456 0.07591329 -0.06383513 0.030086964 -0.024387052 -0.059219446
-0.0878143 0.031514145 0.030454006 -0.03650615 -0.07473214 -0.08882895 -0.024481002 -0.04864797
0.013475116 -0.022190223 0.07459434 -0.015127705 0.06700407 0.07518081 0.06690023 0.050296757
0.02619858 0.10259969 0.084524035 0.02362909 0.055447455 -0.09107441 -0.060178272 0.092239216
0.07340212 -0.016958155 -0.06670197 0.021685237 0.033095147 0.045125533 0.017093327 0.053108297
0.06993827 -0.09922258 -0.094177715 -0.036253072 -0.035675753 -0.024543561 0.06404491 0.033152003
-0.021902794 0.029421508 0.057270702 0.027437966 0.043719992 -0.04073423 -0.12065328 0.01911707
0.07183324 0.041718516 -0.063562214 -0.063117795 0.063479565 0.06616401 0.067859426 0.050334837
-0.04150606 0.038660627 0.040177405 0.004766421 -0.0898538 0.069954045 -0.0756383 0.086233824
0.052588083 -0.069792315 -0.03913374 0.04164673 -0.036383953 0.05159418 0.0108287465 0.04604871
-0.004188816 0.08562956 0.08249962 -0.0467959 0.026489865 -0.09580306 -0.05462334 0.039230213
-0.079560466 -0.08518156 -0.04257352 -0.005083765 0.09074349 -0.08068442 0.054093737 -0.0010531895
-0.05559243 -0.057358146 0.05500213 -0.07720875 -0.020285288 -0.07053089 -0.055468366 0.037687264
0.014881921 0.09263766 -0.006678451 0.016646095 -0.07931617 0.042031772 -0.06388855 -0.006155813
-0.052510593 0.06313554 -0.09146772 0.08280709 0.040543832 0.0014582335 -0.02651658 0.07214599
0.068059586 -0.05445498 -0.05799234 -0.02073703 -0.08520251 -0.016828883 -0.052057423 0.040935803
00000000: 035f 2a3d 32ed 96bd 60e5 913c c810 9c3d
00000010: 83ba 143d 390c 31bd 90f4 c43a a376 c3bc
00000020: 39b4 43bd e854 d13c 19cc 8ebd 8130 0bbd
00000030: aab3 55bd d242 ef3c b141 eebb 6372 8bbd
00000040: 1d12 9fbd a3a1 943d 3cf6 943d 89a1 bfbc
00000050: 5eea 923c 136f 52bd f51b 2f3d b509 a43c
00000060: 1534 653d 1b9a 3ebd 3d63 7abc 7f6d aa3d
00000070: d2fb 87bd efcf 933c 511b 593c 18ca 343d
00000080: 9f73 3dbd 530d aabc df69 3cbd f7f4 b03d
00000090: 0eb5 9cbc fec5 83bc 1547 2fbd 9a6b 043d
000000a0: fc34 873c fe65 203d dd7e 11bc 8f0f 57bb
000000b0: c9ee 003a 054f 9c3c cf16 adbd 9d6c 69bb
000000c0: 72e7 d1bb bb65 06bc 1438 fbbb 1d5a 193d
000000d0: 8b7f 58bd a4d2 57bd 422a 0e3d b7ba 79bd
000000e0: 837f 61bd e4fb 80bd 126e 293d 2fa1 0f3d
000000f0: f2eb 97bc 8c1a 9f3d 020e ae3d 0cd1 903d
00000100: 334b 9f3d a92b 483d 09d0 b7bc e904 11bd
00000110: 190b b8bc 0bb6 07bd 7bd9 b5bd e031 763d
00000120: ffee c4bc c9b7 b9bc 5c58 b33b b1bf 953c
00000130: bd13 a73d 5e9f 8b3c 8832 67bb 5d7a d43c
00000140: c1bd 8abd 7b5b b13c f254 a7bd 7f51 633d
00000150: 4c44 323c 17d0 aebd b21c 87ba c9e7 123d
00000160: 0d33 e03c 91ed 12bb dacc aa3d 4ce0 89bd
00000170: ec79 70bc edcf 88bd b82e 573d 6d47 6b3d
00000180: 4475 913d b0eb d8bc f869 6c3d f9a5 123c
00000190: 772b 6e3d 9c3d 7ebd dbbf 4c3d 204c ab3d
000001a0: 71a4 70bc b8bd 1fbd fb71 b5bc 31a6 833d
000001b0: cd11 383b cb39 3e3c a84a 95bd fdb6 f23c
000001c0: 9673 efbc 057a 553c 7d33 afbd 2d87 853d
000001d0: f08c f63a cd2f 53bd 6fb3 73bc 5643 963d
000001e0: 945b 34bc 1946 943d 0a3f 94bd 85ad 85bd
000001f0: 8d30 853d ed52 ffbc 9d6b a0bc 16a4 1dbd
00000200: bcf3 8f3d 0ad4 8a3d c8eb 83bd 6d78 9b3d
00000210: febb 82bd f078 f63c 5bc7 c7bc 1790 72bd
00000220: fcd7 b3bd fa14 013d ae7a f93c 7987 15bd
00000230: 2a0d 99bd f4eb b5bd 628c c8bc 1843 47bd
00000240: bcc6 5c3c 45c8 b5bc ebc4 983d 32da 77bc
00000250: 6e39 893d 66f8 993d fd02 893d f903 4e3d
00000260: 689e d63c c91f d23d f01a ad3d cb91 c13c
00000270: df1c 633d 3885 babd 7e7d 76bd eae7 bc3d
00000280: da53 963d d4eb 8abc 0b9b 88bd 3da5 b13c
00000290: c78e 073d 8dd5 383d 4e07 8c3c 1688 593d
000002a0: cc3b 8f3d 3535 cbbd 3fe0 c0bd 1a7e 14bd
000002b0: bd20 12bd 940f c9bc fa29 833d 65ca 073d
000002c0: 7d6d b3bc 6005 f13c af94 6a3d 96c5 e03c
000002d0: bc13 333d f0d8 26bd 1119 f7bd 679b 9c3c
000002e0: 4e1d 933d 09e1 2a3d e82c 82bd e743 81bd
000002f0: 9301 823d ff80 873d e2f9 8a3d e72b 4e3d
00000300: 4202 2abd 9b5a 1e3d 1091 243d a32f 9c3b
00000310: 4505 b8bd 1144 8f3d 41e8 9abd 5c9b b03d
00000320: 9a66 573d 46ef 8ebd b34a 20bd c395 2a3d
00000330: 5707 15bd 6b54 533d 0e6b 313c 929d 3c3d
00000340: 5642 89bb 8d5e af3d 90f5 a83d 0fad 3fbd
00000350: 4601 d93c 6534 c4bd b9bc 5fbd dcaf 203d
00000360: 99f0 a2bd ab73 aebd 9261 2ebd b695 a6bb
00000370: b9d7 b93d e03d a5bd 6591 5d3d 2d0b 8aba
00000380: e3b4 63bd 60f0 6abd ea49 613d 9f1f 9ebd
00000390: 552d a6bc 8072 90bd cc32 63bd f65d 1a3d
000003a0: 4dd3 733c d0b8 bd3d e8d6 dabb 645d 883c
000003b0: 8470 a2bd 8229 2c3d 00d8 82bd b4b6 c9bb
000003c0: 5915 57bd 354d 813d 6e53 bbbd c396 a93d
000003d0: 4a11 263d 3222 bf3a 4c39 d9bc 47c1 933d
000003e0: d362 8b3d 2f0c 5fbd 6089 6dbd b4e0 a9bc
000003f0: a77e aebd badc 89bc 2a3a 55bd 4dac 273d

net.2.bias f4 [2]
-0.0072077136 -0.054307945
00000000: af2e ecbb 0272 5ebd
