task2_4/policies/policy2.pth (torch, 151180 bytes, 5 tensors)

log_std f4 [2]
0	0x3aaf92fe	0.0013395248
1	0xbccf515b	-0.025307348

net.0.weight f4 [128, 288]
0	0xbd0e0e8d	-0.034681845
1	0xbd0ade9e	-0.03390371
2	0xbd5b339d	-0.05351602
3	0x3ae74b2b	0.0017646303
4	0xbcf198ca	-0.0294918
5	0x3d555d52	0.05209095
6	0xbd73fe70	-0.059568822
7	0x3ce6b9ed	0.028164828
8	0xbca94e9f	-0.020667372
9	0x3c20a5e2	0.009805175
10	0xbcbac594	-0.02279929
11	0x3cc12612	0.023577724
12	0xbc5a49b2	-0.013323234
13	0xbc6363c2	-0.013878765
14	0xbcb1b92c	-0.021694742
15	0xbc24a892	-0.010049956
16	0x3be7dbb5	0.0070757517
17	0x3d1d4b29	0.038401756
18	0xbd2ddbae	-0.04244583
19	0x3d2dfd00	0.042477608
20	0xbcf2df99	-0.029647635
21	0xbd29a19d	-0.041413892
22	0xbd3dac2f	-0.046306785
23	0xbd3a283c	-0.045448527
24	0x3d3e000e	0.04638677
25	0xbcb3d78e	-0.02195337
26	0xbd097d24	-0.03356661
27	0xbd12242e	-0.035679035
28	0x3bc5aaf2	0.006032341
29	0xbcf9391a	-0.030422736
30	0xbc475e89	-0.012168535
31	0xbd47d006	-0.04878237
32	0x3d10a356	0.03531202
33	0x3d18f9af	0.03734749
34	0x3cc1baac	0.023648582
35	0x3d7f5156	0.062333427
36	0x3d80f6bb	0.0629706
37	0xbc36aedb	-0.011150087
38	0x3b84c8d0	0.004052259
39	0x3c959514	0.018259563
40	0xbc2fe98c	-0.010736834
41	0x3d102962	0.035195716
42	0x3caab942	0.020840291
43	0x3c113de9	0.008864858
44	0xbad240de	-0.001604106
45	0x3d7985a5	0.06091847
46	0x3beea09e	0.0072823307
47	0xbd3478f9	-0.04406068
48	0x3cd82b55	0.02638785
49	0xbcc185f8	-0.023623452
50	0xbd4e4121	-0.05035508
51	0x3cd11c60	0.025526226
52	0x3d56e3f1	0.052463476
53	0x3c1fb593	0.0097478805
54	0xbd63841e	-0.05554592
55	0x3c025f4e	0.007957293
56	0x3d2b974e	0.041892342
57	0x3d004fe5	0.031326193
58	0xbcce63ec	-0.02519413
59	0xbb96b6c4	-0.004599424
60	0xbce1fcb7	-0.027586324
61	0xbd32ef2a	-0.043685116
62	0x3d1c0e2a	0.038099445
63	0xbd295236	-0.041338168
64	0xbd521b1d	-0.05129539
65	0x3d0b1825	0.033958573
66	0xbc45bfa8	-0.01206962
67	0x3cb0d61b	0.021586468
68	0xbd1cc6ba	-0.038275458
69	0x3a274f42	0.0006382355
70	0x3d3b8433	0.045780372
71	0x3cedd1bd	0.029030675
72	0x3d5f2909	0.054482494
73	0xbc9df84f	-0.019283442
74	0x3b4fd107	0.0031710283
75	0x3d36d85b	0.044639926
76	0x3c87aa5f	0.016560731
77	0x3cfb5e8e	0.030684736
78	0x3cd33ccf	0.025785832
79	0xbd2dbd63	-0.04241694
80	0x3c33cfd1	0.01097484
81	0x3c95d7ff	0.018291472
82	0x3b720b9b	0.0036933187
83	0xbd2455c8	-0.04012087
84	0x3c5c985e	0.013464062
85	0x3bb73866	0.00559144
86	0xbd57f6f8	-0.052725762
87	0xba059c86	-0.0005096871
88	0xbcf4011b	-0.029785683
89	0x3d7032b1	0.058642093
90	0x3cc6dc61	0.024275007
91	0x3ccde7a6	0.025134873
92	0x3d30bfbc	0.043151602
93	0xbcead9af	-0.028668253
94	0x3c741c4c	0.014899325
95	0x3c316078	0.010826223
96	0x3ca65274	0.020302989
97	0xbd2dce73	-0.042433213
98	0xbb7896b8	-0.0037931632
99	0xbd5f0014	-0.054443434
100	0xbd32269a	-0.043493845
101	0xbb87eb93	-0.0041479557
102	0xbc718984	-0.014742259
103	0xbd4d7855	-0.050163586
104	0xbc52d480	-0.012868047
105	0xbd3fbdb6	-0.04681178
106	0xbd5f6d9d	-0.054547895
107	0x3d0600c4	0.032715574
108	0xbd562b1c	-0.052287206
109	0xbc970238	-0.018433675
110	0xbd854b55	-0.06508509
111	0x3b8d349c	0.00430925
112	0xbd497ac1	-0.049189333
113	0xbc01edd2	-0.007930236
114	0x3d394152	0.04522831
115	0x3c9ac470	0.018892497
116	0xbd436ad8	-0.047709316
117	0xbd0ac158	-0.033875793
118	0xbd1cf33b	-0.0383179
119	0x3c570379	0.013123387
120	0xbd712cb0	-0.058880508
121	0x3d08f5c3	0.0334375
122	0xbc931f26	-0.017959189
123	0x3be4533b	0.0069679297
124	0x3d440633	0.047857475
125	0x3c0e8a19	0.008699917
126	0x3d494fc3	0.049148332
127	0xbc8ebc4f	-0.017423777
128	0xbd19dac7	-0.037562158
129	0xbd210bc5	-0.039317865
130	0x3baff3c1	0.005369634
131	0x3d065834	0.03279896
132	0x3d4219cb	0.04738788
133	0x3cae0fe1	0.021247806
134	0xbd123224	-0.03569235
135	0xbce1ee43	-0.027579432
136	0x3d463894	0.0483938
137	0xbc5de49b	-0.013543273
138	0xbd4952ae	-0.049151115
139	0x3bd55002	0.006509782
140	0xbc8b0aad	-0.016972864
141	0xbcb4ddbe	-0.022078391
142	0x3c4861e7	0.012230373
143	0x3d73b84d	0.059501935
144	0xbd816618	-0.06318301
145	0xbcc9cb6c	-0.024633132
146	0xbd59ff5c	-0.053222045
147	0x3c190387	0.00933922
148	0x3b217c15	0.002464061
149	0x3d04a373	0.03238244
150	0xbc1d6ba1	-0.00960818
151	0xbc6dce72	-0.014514552
152	0xbd83751c	-0.06418821
153	0x3ce41943	0.027844077
154	0xbca695f9	-0.020335184
155	0xbc6b891f	-0.014375954
156	0xbd52f770	-0.051505506
157	0xbd10d550	-0.03535968
158	0xbceccf9b	-0.028907588
159	0x3cca99bf	0.024731515
160	0xbd5dc9db	-0.054147583
161	0x3d5b61a7	0.053559925
162	0x3d28a958	0.041177124
163	0xbd093e52	-0.0335067
164	0x3b116e9a	0.0022191168
165	0x3c03b7b8	0.008039407
166	0xbd32a868	-0.043617636
167	0xbb2e720d	-0.0026618273
168	0x3d2d1705	0.04225828
169	0x3d5d387b	0.054008942
170	0xbd7010bf	-0.05860972
171	0x3b7fb78b	0.0039019312
172	0x3d18cd7a	0.037305333
173	0xbd0917b3	-0.033469867
174	0xbd25c225	-0.040468354
175	0x3ae4f5a6	0.0017468228
176	0x3d5cde95	0.05392321
177	0xbb5fc4ca	-0.0034144395
178	0xbd11ba95	-0.03557833
179	0xbc8b8e09	-0.017035501
180	0xbcf31e60	-0.02967757
181	0x3c7d4e87	0.015460617
182	0xbd4bd3c7	-0.049762513
183	0xbd82d3d5	-0.0638806
184	0xbd91b5e4	-0.07114771
185	0xbd6a9e9c	-0.057280168
186	0xbcfefec4	-0.031127341
187	0xbadd7f09	-0.0016898821
188	0xbc92e099	-0.017929362
189	0x3c38636b	0.011254172
190	0x3d75f7c2	0.060050733
191	0x3ca354a7	0.019937826
192	0x3ce78c8f	0.028265266
193	0xbd07ae7c	-0.033125386
194	0x3d349b0c	0.044093177
195	0x3d1aace0	0.037762523
196	0x3b20edd1	0.0024555812
197	0x3d22b204	0.03972055
198	0x3d12a65d	0.035803188
199	0x3d258a68	0.040415198
200	0x3d1bf65e	0.03807675
201	0x3d86af5d	0.06576417
202	0x3d6ac13c	0.05731319
203	0xbd6cb278	-0.05778739
204	0x3d7e696f	0.062112268
205	0xbca57337	-0.02019654
206	0x3b10c205	0.00220883
207	0xba126a18	-0.0005585267
208	0xbd2b59ea	-0.041833796
209	0xbc1845af	-0.009293958
210	0x39dc8989	0.00042064142
211	0x3c33aaac	0.010965984
212	0x3d6c86a6	0.0577456
213	0x3bdf0654	0.0068061743
214	0xbcc317f5	-0.023815135
215	0xbc92ed73	-0.01793549
216	0x3d558c29	0.05213562
217	0xbd1ce801	-0.038307194
218	0x3b1c0d3a	0.0023811595
219	0x3ccbd7b9	0.024883138
220	0x3d415752	0.047202416
221	0xbce74f71	-0.028236123
222	0xbd3d8166	-0.046265982
223	0x3d39e578	0.045384854
224	0x3d845576	0.06461613
225	0xbcb4f8e4	-0.022091337
226	0xbcad97b3	-0.0211905
227	0x3d555698	0.052084535
228	0x3c161a5c	0.009161558
229	0xbd6c3d51	-0.057675663
230	0x3d697845	0.056999464
231	0xbd43c866	-0.047798537
232	0xbc4314cd	-0.011906815
233	0xbc3a6b1a	-0.011378074
234	0x3d270f0f	0.040785845
235	0xbc849f28	-0.016189173
236	0x3b81fa69	0.003966619
237	0xbc260bef	-0.010134681
238	0x3bf83224	0.0075743366
239	0xbd61acb1	-0.055096332
240	0x3cb40803	0.021976477
241	0xbd465fb4	-0.048431113
242	0x3c815093	0.015785491
243	0x3d0a9d52	0.03384144
244	0xbd6466a0	-0.055761933
245	0xbd2ba94e	-0.04190951
246	0x3d160f9c	0.03663598
247	0xbc1ea2c2	-0.009682359
248	0x3cee5f18	0.029098079
249	0xbd0bacf4	-0.034100488
250	0x3cd959ec	0.026532136
251	0xbd1c311d	-0.038132776
252	0x3ca96396	0.02067737
253	0xbcbf9d21	-0.023390355
254	0x3bc6d341	0.006067664
255	0xbd4dbecd	-0.05023079

net.0.bias f4 [128]
0	0x3bfd5069	0.007730533
1	0xbd0cde28	-0.034391552
2	0x3cc002e1	0.023438873
3	0xbcfb4319	-0.030671643
4	0x3d13f5cb	0.03612308
5	0x3d373929	0.044732247
6	0x3c0e5258	0.0086866245
7	0xbd128c77	-0.03577849
8	0x3c84cb4d	0.016210223
9	0x3d0af425	0.03392424
10	0x3d78ac17	0.060710993
11	0xbc245619	-0.010030293
12	0x3cf2385b	0.029567888
13	0xbc8bdd14	-0.017073192
14	0x3d696983	0.05698539
15	0xbc25a79f	-0.010110765
16	0xbca2dbab	-0.019880136
17	0x3cbe800a	0.023254413
18	0x3cfc9ec2	0.03083742
19	0x3d78208e	0.06057792
20	0x3bf0fc8a	0.0073543238
21	0x3d0dbb63	0.034602534
22	0xbd137254	-0.035997704
23	0x3c7ebb11	0.01554753
24	0x3cf2d8c8	0.029644385
25	0xbc2e3f79	-0.01063525
26	0xbd68ef94	-0.056869105
27	0xbcc6dcc8	-0.024275199
28	0xbd687142	-0.056748636
29	0xbd135a9e	-0.03597509
30	0xbd540c4c	-0.05176954
31	0x3d20d7ca	0.039268292
32	0x3d2c4adc	0.04206358
33	0xbd3aaea4	-0.045576707
34	0x3c109374	0.008824218
35	0xbd1cc20d	-0.038271
36	0xbba59a64	-0.005053805
37	0xbce36a01	-0.027760508
38	0x3c5f57a9	0.01363174
39	0x3d202b99	0.039104078
40	0xbd26dedc	-0.04073988
41	0xbb0f313f	-0.0021849421
42	0xbd1e2f97	-0.038619604
43	0xbd7dec4a	-0.06199292
44	0x3d09ca61	0.03364027
45	0xbd438bc3	-0.04774071
46	0x3d497e39	0.04919264
47	0x3ca08b5c	0.019597702
48	0x3d764db2	0.06013269
49	0xbcab3616	-0.020899814
50	0xbcfd7eaf	-0.030944197
51	0x3d87a61f	0.06623482
52	0xbcd08609	-0.025454538
53	0x3d39884e	0.045296006
54	0xbd2dfac7	-0.042475488
55	0x3ce8942d	0.028390968
56	0x3d1cb99d	0.038262952
57	0x3bb3af07	0.0054835114
58	0xbade1e4c	-0.0016946285
59	0xbcc4c778	-0.024020895
60	0xbd36dcbc	-0.044644102
61	0x3d07a976	0.033120595
62	0x3d2923c8	0.04129389
63	0xbd4841e4	-0.048890963
64	0xbd199df4	-0.03750415
65	0x3d703845	0.058647413
66	0xbc81d5c4	-0.015849002
67	0xbb8d5dd3	-0.0043141632
68	0x3c8aea04	0.01695729
69	0xbd08ae89	-0.033369575
70	0x3cad5f3d	0.021163577
71	0xbd2896b0	-0.04115933
72	0xbcaeef90	-0.021354467
73	0xbd158666	-0.036505125
74	0xbd53822b	-0.05163781
75	0xbd4fa3e8	-0.050693423
76	0x3c76e5fb	0.01506948
77	0xbc3c074f	-0.011476352
78	0x3cb03b1c	0.02151256
79	0x3d043c73	0.03228421
80	0x3ca4071f	0.020022927
81	0xbd071ef5	-0.032988507
82	0xbd0efc49	-0.034908567
83	0xbd01df72	-0.031707235
84	0xbb01e00d	-0.0019817383
85	0x3c1e7898	0.0096723065
86	0x3d2b1c25	0.041774888
87	0x3d5319b4	0.051538184
88	0xbb07f2aa	-0.0020744004
89	0xbb84989c	-0.004046513
90	0x3d4ed246	0.0504935
91	0xbd5c9b2f	-0.053858932
92	0xbc9615a7	-0.018320872
93	0xbce44ecd	-0.027869606
94	0xbc5e2a2b	-0.013559858
95	0xbca517ff	-0.020153044
96	0x3d2fba77	0.042902436
97	0xbd2beff3	-0.04197688
98	0xbca9497b	-0.020664921
99	0x3c81be1d	0.015837723
100	0x3d06d868	0.032921225
101	0x3d57a969	0.052651796
102	0x3bfaf37f	0.0076584215
103	0x3c5cb120	0.013469964
104	0x3ca33a4b	0.019925257
105	0xbca37c02	-0.019956592
106	0x3daa96cd	0.08329544
107	0x3d0e8aee	0.034800462
108	0xbcfda28a	-0.030961294
109	0x3d62c5dc	0.055364475
110	0xbcdd931f	-0.027047692
111	0x3d0e5fa0	0.034759164
112	0xbadf216f	-0.0017023514
113	0xbd37cd43	-0.044873487
114	0xbcfa19f4	-0.030529954
115	0xbd7482e9	-0.05969516
116	0x3d4d8d35	0.050183494
117	0xbd346aca	-0.044047154
118	0x3d24b35e	0.04021012
119	0x3d35c25a	0.0443748
120	0xbd292c42	-0.041301973
121	0x3d2e9861	0.04262579
122	0xbcf955b4	-0.030436374
123	0xbcb819d9	-0.022473263
124	0xbd1c14f0	-0.038105905
125	0x3cf08f22	0.029365126
126	0x3c8f03c9	0.01745786
127	0x3d303302	0.043017395

net.2.weight f4 [2, 128]
0	0x3db25faa	0.08709653
1	0x3da31f3f	0.07964944
2	0x3da4125c	0.08011314
3	0xbd13f135	-0.036118705
4	0xbb9219b9	-0.004458633
5	0x3cad38e6	0.021145295
6	0xbd9fe528	-0.0780738
7	0x3c982779	0.01857351
8	0xbdb6125d	-0.08890221
9	0x3cfb6e29	0.030692177
10	0xbd41e6be	-0.047339194
11	0x3d8aac1e	0.0677111
12	0xbd7a042d	-0.06103914
13	0x3ca1cb26	0.019750189
14	0x3c9d100f	0.019172696
15	0x3d8c66e0	0.06855559
16	0x3db49664	0.08817747
17	0xbd52361e	-0.05132114
18	0xbdac72c1	-0.08420325
19	0xbdbd3dc4	-0.092402965
20	0x3d4b0572	0.04956574
21	0x3d936251	0.07196487
22	0xbd1fa0ed	-0.03897183
23	0x3da0f3b5	0.078589834
24	0xbd93c537	-0.0721535
25	0x3c7031cd	0.014660311
26	0xbd33edcd	-0.043927956
27	0xbd8a42fb	-0.06751057
28	0xbd349b41	-0.044093374
29	0xbca820ee	-0.020523515
30	0xbd9146b6	-0.07093565
31	0xbc895b1f	-0.016767083
32	0xbc3dc13d	-0.011581716
33	0x3d27b6db	0.04094587
34	0x3d69d08d	0.057083655
35	0xbd0a3d43	-0.03374983
36	0xbd630fa6	-0.055434845
37	0x3c37ad55	0.011210759
38	0x3d4374dd	0.04771887
39	0xbc001077	-0.0078164255
40	0xbcaedb5d	-0.021344835
41	0x3d8158be	0.06315754
42	0x3d37331a	0.04472647
43	0x3d63a490	0.05557686
44	0xbd824aca	-0.06361921
45	0x3c4b62b1	0.012413667
46	0xbd832388	-0.064032614
47	0xbdbaef54	-0.091276795
48	0xbd9b616e	-0.075869426
49	0x3da06898	0.0783245
50	0x3d64a9f3	0.05582614
51	0xbdc8d4a8	-0.09806186
52	0x3ce39a0b	0.027783414
53	0x3d146d4c	0.036237046
54	0x3d3fa14e	0.04678469
55	0x3d138310	0.036013663
56	0xbc3e8cde	-0.011630265
57	0x3d0e3ae3	0.034724128
58	0xbd1a1644	-0.03761889
59	0x3c838c0a	0.016057987
60	0xbd8dacbd	-0.06917713
61	0x3bbb2ad3	0.005711892
62	0x3d3a611a	0.04550276
63	0xbce4edcb	-0.02794542
64	0xbd6428de	-0.055703036
65	0xbd07658f	-0.03305584
66	0xbd0b41f7	-0.033998456
67	0x3cd2f805	0.02575303
68	0xbd91150c	-0.070840925
69	0x3d1a3e70	0.0376572
70	0xbd7f352a	-0.06230656
71	0x3d5c5e1b	0.053800683
72	0xbd045d3e	-0.032315485
73	0x3d56f036	0.052475177
74	0x3c1f87d7	0.009736977
75	0xbcf8edc1	-0.030386807
76	0xbc50d15f	-0.01274523
77	0x3d1d421c	0.038393125
78	0x3db45cfc	0.08806798
79	0xbd93941f	-0.07205986
80	0x3d42a3f8	0.047519654
81	0x3da17701	0.07884026
82	0xbd9d41fe	-0.07678603
83	0x3d16ee06	0.03684809
84	0xbabe701e	-0.0014529263
85	0x3d419fed	0.047271658
86	0x3d711278	0.058855504
87	0xbc8073ec	-0.015680276
88	0x3cbb77b4	0.022884227
89	0x3cf75e8a	0.030196447
90	0x3a64df92	0.00087308243
91	0x3da24fb0	0.079253554
92	0xbd8267b6	-0.063674375
93	0x3d896c50	0.06710112
94	0xbd0b955d	-0.03407799
95	0x3d774314	0.060366705
96	0xbd02dec0	-0.031950712
97	0x3d5e83a6	0.05432477
98	0x3d1c34c6	0.038136266
99	0xba898d72	-0.0010494424
100	0xbd867c1b	-0.0656664
101	0xbc6704c8	-0.014100261
102	0x3cbe99be	0.02326667
103	0x3c7f5f1a	0.015586639
104	0xbdb90ccd	-0.09035645
105	0x3d578c78	0.052624196
106	0xbd756643	-0.059911977
107	0xbda66a2c	-0.081257194
108	0xbcd692e8	-0.026193097
109	0xbd5726d3	-0.05252726
110	0x3ce78d23	0.028265541
111	0x3c2d00a0	0.010559231
112	0x3d0610ec	0.03273098
113	0x3db5cf1e	0.08877395
114	0xbcdd0ea8	-0.026984528
115	0xbd9444ad	-0.07239661
116	0x3c9244ec	0.01785513
117	0xbd93d923	-0.0721915
118	0x3d32e2bc	0.043673262
119	0xbd5d921b	-0.054094415
120	0xbc605764	-0.013692711
121	0x3b990cbf	0.004670709
122	0xbc45c257	-0.01207026
123	0xbb720b73	-0.0036933094
124	0x3d83bcc7	0.06432491
125	0xbd5ffbc2	-0.054683454
126	0xbd48dede	-0.049040668
127	0xbd136448	-0.035984308
128	0x3d9b15c2	0.07572509
129	0xbd7be881	-0.06150103
130	0xbd3ebaa4	-0.046564713
131	0x3dc1c8f6	0.094621584
132	0x3d6ad320	0.05733025
133	0x3d06e3f3	0.032932233
134	0xbd0cbaca	-0.034357823
135	0xbd03573c	-0.032065615
136	0xbc013106	-0.007885223
137	0x3d6d61d6	0.05795463
138	0x3cdc940e	0.026926067
139	0xbda3fed0	-0.08007586
140	0xbd8bee1a	-0.06832524
141	0xbd48cfaf	-0.049026188
142	0x3dde1add	0.108449675
143	0x3c47ffe0	0.012207001
144	0xba86e1a8	-0.001029064
145	0x3d21a009	0.039459262
146	0xbd642384	-0.055697933
147	0x3da63bc1	0.08116866
148	0xbd7c24dd	-0.061558593
149	0x3b27d9ad	0.0025611923
150	0xbb8987b6	-0.004197086
151	0x3c3d0404	0.011536602
152	0xbd9d11ae	-0.07669388
153	0x3ba91246	0.005159649
154	0x3c5dea33	0.013544607
155	0xbccab79b	-0.024745753
156	0xbda26fa5	-0.07931451
157	0xbccff6d6	-0.025386255
158	0x3d8e8671	0.069592364
159	0x3d02b138	0.03190729
160	0x3d3535d2	0.04424078
161	0x3d195eaf	0.037443813
162	0x3dc106f2	0.09425153
163	0x3cb5589d	0.02213698
164	0xbda8c756	-0.08241145
165	0x3bc1299f	0.005894854
166	0x3dd2cfd1	0.10293544
167	0xbdb89210	-0.09012234
168	0xbd707e0d	-0.05871396
169	0xbd3a46dd	-0.045477737
170	0x3d747a3d	0.059686888
171	0x3c982d82	0.018576387
172	0xbd898fd9	-0.0671689
173	0x3ae8ea89	0.0017770092
174	0x3d90a47f	0.07062625
175	0x3bbd0abb	0.0057691014
176	0x3d0536ff	0.03252315
177	0xbd941f2e	-0.072325096
178	0xbd48ee15	-0.049055178
179	0x3d0dfe39	0.034666274
180	0xbcd76c44	-0.026296742
181	0x3dad1b89	0.084525175
182	0x3d2b57cc	0.041831776
183	0x3d8c34db	0.06846019
184	0x3da1fb39	0.07909245
185	0x3d93765f	0.07200312
186	0xbdad9037	-0.084747724
187	0xbd669ab7	-0.05629989
188	0x3d3b51f0	0.04573244
189	0x3da868ad	0.0822309
190	0xbdbb4381	-0.09143735
191	0x3cbdcd1d	0.023169095
192	0x3cd9c5cf	0.02658358
193	0xbdac6ae6	-0.08418827
194	0x3bc4ee34	0.0060098413
195	0xbd077a1e	-0.033075444
196	0x3daed9ba	0.08537622
197	0x3ce57966	0.028011989
198	0x3c3f95a8	0.011693396
199	0x3b9aff15	0.004730115
200	0x3c794a26	0.015215432
201	0x3d5d19c6	0.053979658
202	0x3d6b8d02	0.057507522
203	0xbcfdc975	-0.030979851
204	0x3d9b9ec4	0.075986415
205	0xbd48e1e1	-0.04904354
206	0x3cdf2d7e	0.027243372
207	0x3daebc46	0.08532004
208	0xbd310578	-0.043218106
209	0xbd9e5061	-0.07730175
210	0x3cb11b05	0.02161933
211	0x3bc971c4	0.006147595
212	0xbce7744e	-0.0282537
213	0x3d97ab57	0.07405727
214	0x3d5bbdbf	0.053647753
215	0xbdbb8e4b	-0.091579996
216	0x3c624e65	0.013812636
217	0xbdbe64e1	-0.09296585
218	0x3dcada87	0.09904962
219	0xbd4a2104	-0.049347892
220	0x3dc2889a	0.09498711
221	0xbd71bc59	-0.059017513
222	0x3c5786ac	0.013154667
223	0xbd6f6ad0	-0.058451474
224	0xbd75a565	-0.059972186
225	0xbbaabb79	-0.0052103368
226	0x3d960c4c	0.07326564
227	0x3dc1304b	0.09433039
228	0x3c1708e6	0.00921843
229	0xbd12f5d0	-0.035878956
230	0xbd010861	-0.03150213
231	0xbdb8884b	-0.09010371
232	0x3d835393	0.06412425
233	0x3dcc2879	0.09968657
234	0x3dccb554	0.09995523
235	0x3d7f3829	0.062309418
236	0xbdb5fcc3	-0.08886101
237	0xbdb531c2	-0.08847381
238	0x3d8a0f9d	0.06741259
239	0xbcb2da6b	-0.021832665
240	0xbdae2f64	-0.08505133
241	0xbcd93810	-0.02651599
242	0xbd4d1d1c	-0.05007659
243	0xbd7b9a55	-0.06142648
244	0x3d67a459	0.05655322
245	0x3d78bc04	0.06072618
246	0xbd4e8738	-0.050421923
247	0x3bad62b8	0.005291309
248	0xbd3aa7d0	-0.045570195
249	0x3d86ecf6	0.065881655
250	0x3da65878	0.08122343
251	0xbdb30bfe	-0.08742522
252	0x3cbdba56	0.023160141
253	0xbd3225f3	-0.043493222
254	0xbd2c696c	-0.042092726
255	0xbd839a21	-0.06425882

net.2.bias f4 [2]
0	0xbdd1faea	-0.10252936
1	0x3dc1b9a5	0.09459237
