task2_4/policies/policy400_false_0.4_b5_g9.pth (torch, 150235 bytes, 3 tensors)

net.0.weight f4 [128, 288]
00000000: cbd3 0fbd a8f1 1b3d deb8 2f3d 8113 a6bb
00000010: 0e70 ffbc a623 2e3d 9c51 5aba 9835 cf3c
00000020: b5fb 01bc 9ba4 1b3d 72cb 5abd bff1 bdbc
00000030: 5a0c 77bc 3472 15bd c180 fe3a 0356 6cbd
00000040: 0619 443d 214c 50bd 1034 c13c 609b b2bc
00000050: cc42 b3bc c2e1 38bd 98e1 1f3c 9294 6ebd
00000060: 3220 1b3c 417d 373a c0a0 4fba 4574 713d
00000070: 2720 83bd c226 dabc 2672 47ba a351 b5bc
00000080: 8aab bb3c f213 3e3d 4a48 69bd f102 87bd
00000090: 78e3 26bc 1f17 d7bb 043d 3b3d ee2a 72b9
000000a0: 883a eebc 9639 3e3d 5b52 223d 4d5a e13c
000000b0: d88d 383d 4e96 5c3d 97dd 803d d74a 173d
000000c0: 9338 3b3d 0b46 79bd 2ee7 f6ba dad8 e53c
000000d0: 85ab 18bd 442e fc3c d856 473d 96b0 2ebd
000000e0: bf0b 6b3d 4f5f 2bbd 859f 24bd 94b3 f13c
000000f0: af5f 033d 9016 e1bc abc3 3a3d 6540 153d
00000100: 89eb 87bb 9b74 153d c2a0 6dbb b101 71bd
00000110: 11a6 1bbb 16ba 523b 1986 ba3c d153 d4bc
00000120: cf09 f63c 824c 38bd 6af8 11bd bb5b a03b
00000130: 91b9 d53c 4bef 7abd 90b1 dbbb 699c aabc
00000140: a387 4abd e7d7 2bbd b8ed b03c 1333 92bb
00000150: 0344 29bd 017b 12bd 2163 003d d709 4e3d
00000160: d49f 84bc 686f 26bd a2ce 08bd 5a01 3dbd
00000170: be97 583d 0cde 8f3b 47e0 2b3c 131b 503c
00000180: 10a0 8ebc e5a9 03bd 7e10 313d a031 94bc
00000190: f5da 013d b95f 093d 170a 9e3d 6b3f c33c
000001a0: a809 f3bc a067 45bd b681 d23c c1c8 9dbc
000001b0: 797d 29bd ffba 52bc 3751 d73b 3c9d f7bc
000001c0: 7333 ab3c 657d a63c ec92 9939 6453 0dbd
000001d0: 5d63 bdbc c429 c8bc d5b0 5d3c 6d81 e83c
000001e0: 6b50 383d 5a86 4c3d 8261 c8bc 4bc7 1cbd
000001f0: bc1a f83c d368 333d 7496 b43c 8f8e 08bd
00000200: a89a a83c 67a4 503c a55e c7bc 6462 6abc
00000210: e925 c6bb 8175 29bd 451c fb3c b6bd 2abd
00000220: 80ba bdbc b9be cd3c 16b2 2dbd 3a23 083d
00000230: 1e93 123d 99eb 593d 78c3 483d 98d3 17bd
00000240: 2ec7 3b3b 8cca b83c aed7 053d 1079 34bd
00000250: fa4c 5dbd e549 83bc 6cce a9bc 2dc3 383d
00000260: 4276 003d dab5 913d f27f 22bd 04f7 82bc
00000270: 4b0a 52bd ce5e bbbc 0a65 22bc 50b8 1d3d
00000280: b0ce 1e3d 868e 8a3c 0468 093d 040b 1c3d
00000290: 7e8c acbc 2da5 463d 9e75 e2bc dcd9 b03c
000002a0: dde4 f33c 6c4f 8d3c 906f 7ebc e47b 343c
000002b0: c856 2b3c ddb7 623c c252 72bc 82a6 af3a
000002c0: 1d85 dfbc 42c2 05bd 1393 803d 86c5 913d
000002d0: e95a 863c d978 533d b404 5cbd 7ba0 cf3c
000002e0: 76d1 8b3d 30a5 153c 83e6 a637 dc25 49bd
000002f0: b401 4bbc 96a6 8e3d bccf a8bc 27f9 473d
00000300: 70b5 d3bb 8321 283d 919a 883d 77d6 493d
00000310: 3b60 693d 8066 9ebb fce8 61bc e9f4 b7bc
00000320: 92d3 78bc 80e2 1c3d b22f 4a3d dd1b 35bb
00000330: 8db3 cebc 5831 803d a9d2 873c 3c61 9b3d
00000340: 7120 b2bb b7d1 4f3c 1764 473c 29cf b53b
00000350: 75b4 4cbd ba0e 00bd d675 423d 7e70 b7bc
00000360: cadf 503c ae35 7eba 2c7f c13d ea91 873d
00000370: 0433 0fbc 1726 2a3d f268 a0bc c727 813c
00000380: 7ac0 86bc 01b2 77bd eb6c 5cbc b278 a7bc
00000390: 87ec cd3c 3d67 39ba 9d2f 143d 2722 c03d
000003a0: 7a67 97bc 7c18 14bb a1eb 9dbd 0497 60bd
000003b0: ca1b 8abc 5172 9bbd 1d7c 00bc ef1e 4cbd
000003c0: 3470 2e3d 5f62 953d f86b 963d 17f3 c1bc
000003d0: 25a3 bf3c ebb0 5e3c c50e 30bd 325f 3d3d
000003e0: 66dc b6bd d2e7 71bd 4f04 a9bd 2b33 e7bc
000003f0: f3ad 543d d42b f53c f14a 963d 0e91 cd3c
-0.03511409 0.03807226 0.042900912 -0.005068243 -0.031181362 0.042514466 -0.0008328201 0.02529411
-0.007933547 0.037998777 -0.053416677 -0.023186563 -0.015078628 -0.036485866 0.0019417034 -0.057699215
0.047875427 -0.050853852 0.023584396 -0.021802604 -0.021882437 -0.045137174 0.009758376 -0.058247156
0.009468125 0.000699956 -0.0007920377 0.058948774 -0.06402617 -0.02662981 -0.0007608257 -0.022133654
0.022908945 0.04640574 -0.056953706 -0.06592358 -0.010186069 -0.0065640355 0.045712486 -0.00023094911
-0.029080644 0.046441637 0.03962932 0.02750888 0.045057148 0.05385428 0.06292265 0.036936607
0.04570825 -0.060857814 -0.0018837207 0.028057504 -0.03727295 0.03078378 0.048666805 -0.042648874
0.05738425 -0.04183894 -0.040191192 0.029504575 0.032073673 -0.027476579 0.04559676 0.036438365
-0.004147951 0.036488157 -0.003625915 -0.058839504 -0.0023750106 0.0032154373 0.02276902 -0.025918873
0.030033974 -0.04499484 -0.035637297 0.0048937476 0.026089462 -0.061263364 -0.0067045167 -0.020826535
-0.04944576 -0.041953947 0.021597728 -0.004461655 -0.041324627 -0.035761837 0.031344537 0.050302353
-0.016189493 -0.04063359 -0.033400185 -0.046143867 0.052879088 0.0043904837 0.010490484 0.0127017675
-0.017410308 -0.032144446 0.04322862 -0.01809007 0.031702954 0.033538554 0.07716768 0.023833951
-0.02966769 -0.048194528 0.025696617 -0.019260766 -0.041379426 -0.012861966 0.006570961 -0.030226342
0.020898556 0.020323465 0.000292919 -0.034503356 -0.02311867 -0.024433978 0.01353093 0.028382028
0.044998568 0.049932815 -0.024460558 -0.038275998 0.030286185 0.04380114 0.022044398 -0.03333908
0.020581558 0.012734509 -0.024337122 -0.014305685 -0.0060469997 -0.041371826 0.030653128 -0.04168483
-0.02316022 0.025115358 -0.042406164 0.03323672 0.035784833 0.0532032 0.04901454 -0.037067026
0.0028652656 0.02255752 0.03267639 -0.044060767 -0.05402849 -0.016026447 -0.020728312 0.04510801
0.03136278 0.071147636 -0.0396728 -0.015986927 -0.051279347 -0.022872355 -0.009911785 0.038505852
0.03877133 0.016913664 0.033546463 0.038096443 -0.021063086 0.048497368 -0.027643975 0.021588258
0.029772216 0.017249785 -0.015529528 0.011015866 0.010457702 0.013837782 -0.014790239 0.0013401064
-0.027285153 -0.03265596 0.06278052 0.07117753 0.016400771 0.05162892 -0.053715423 0.025345078
0.06827061 0.009133622 1.9896082e-05 -0.04910837 -0.012390543 0.069653675 -0.020606868 0.048821595
-0.006460838 0.041047584 0.06670106 0.049276795 0.05697654 -0.0048339963 -0.013788458 -0.02245565
-0.015187161 0.038301945 0.049361892 -0.0027635016 -0.0252321 0.062594116 0.016579943 0.07586905
-0.005435996 0.012684277 0.012169859 0.005548377 -0.049976785 -0.031264044 0.04747566 -0.022392508
0.012748668 -0.000969733 0.09448084 0.06619628 -0.00874019 0.04154023 -0.019581292 0.015766038
-0.016449202 -0.060472492 -0.013453702 -0.020443294 0.0251372 -0.00070725736 0.03617822 0.09381514
-0.018481959 -0.0022597602 -0.07710958 -0.05483152 -0.016858954 -0.075901635 -0.007842091 -0.049834188
0.042587474 0.072941534 0.07344812 -0.023675485 0.023393223 0.013591985 -0.042982835 0.046233363
-0.089287564 -0.05905897 -0.08252775 -0.028222641 0.051923703 0.029928125 0.07338513 0.025093582

net.0.bias f4 [128]
00000000: 41b7 e73c d081 1cbd 252d dbbc a223 1fbd
00000010: 050e 87bd 3715 aa3d 0bfb 88bc a1a6 03bc
00000020: 90b2 9f3d 105a c83b 8403 7d3d 97fe a33d
00000030: 6403 edbc 5175 2f3d f7b1 f2bc 9212 5a3b
00000040: dd5f 543c 8eef 203d 2d37 6ebd c966 fc3c
00000050: d41f 96bb 3335 01bd ee4d a33d 18c5 0fbd
00000060: a460 1b3c 5169 7b3c 6446 b7bc 2903 313d
00000070: 2418 5a3b 10a3 3cbb a08b 30bd 803d 303d
00000080: 0a77 7dbc 526a 193d a8a4 aa3b 67df 5fbc
00000090: 7d5a ca3d 88ff 2a3d 3fc1 c13c e84e 74bc
000000a0: b01e 1d3b edfe a73d 4632 43bc f7d4 273d
000000b0: 4597 68bc bb9c 533c 05b0 8abc 7a0d 5fbd
000000c0: ad39 e93c 4701 ca3c f32e 803d 9395 a43d
000000d0: f22a 123c 5326 6f3d 6b73 393d 8d4f 91bc
000000e0: f716 c3bc 800e c93d 9a54 55bd edbb 9d3d
000000f0: 7ec9 013c 093b 02bd faf4 823d 0709 c9bc
00000100: f580 0dbd 10bc 233d 6dac 183d 6b53 953c
00000110: 932a 55bb 103a c73b cc20 6bbc de4b d73c
00000120: eb9c 333d 1070 2f3d 10f9 3d3c 77d3 a63c
00000130: c0c5 fb3c 549f ae3c 3ea8 bbbc d752 15bd
00000140: f113 a13c 9bbd 943d 1c08 953d 3212 4b3c
00000150: ded4 883d a390 36bd ba48 6a3c 527a a0ba
00000160: ecd9 d23d f191 0c3d 23eb af3b a256 62bd
00000170: df93 21bd a23f 333d 17c4 5fbc a482 0abc
00000180: 527f 07bd 66b6 22bd f649 d53d 98f5 c7bc
00000190: 0281 e13c 0476 babc 641c 1f3d e56e adbc
000001a0: ce19 933d 7bd1 b23c 6ac3 0c3d e6b8 c73c
000001b0: b64d 03bc ccbe b03b 8ffc 563c f723 dbbc
000001c0: 4de0 a63d 3f89 ae3c 391c 98bc e9fd 93bc
000001d0: 2fd3 89bc e46a 233d a395 edbc f080 3dbd
000001e0: b557 37bd 78e0 803d 00de 42bd 0649 1bbd
000001f0: 209d 03bc 11ec 8ebc 2550 8b3c 8d76 813c
0.028285624 -0.038209736 -0.026754925 -0.03885234 -0.06594471 0.08304828 -0.01672127 -0.008035333
0.0779773 0.006114252 0.06177093 0.080075435 -0.02893228 0.04283649 -0.029625876 0.003327523
0.012962309 0.039290957 -0.05815809 0.03081073 -0.004581431 -0.031544875 0.07973848 -0.035100073
0.00948349 0.015344934 -0.022372432 0.043215904 0.003327855 -0.0028783716 -0.043101907 0.0430274
-0.015470276 0.03745491 0.005207617 -0.013664103 0.098805405 0.0417476 0.023651717 -0.014911391
0.002397459 0.0820292 -0.011913842 0.040974583 -0.014196222 0.012915785 -0.016929636 -0.05445621
0.028469885 0.024658812 0.06258955 0.080363415 0.008921372 0.05838616 0.045276087 -0.017738128
-0.023814661 0.09817219 -0.052082635 0.077018596 0.007921575 -0.03179458 0.06394382 -0.024540437
-0.03454681 0.039974272 0.037273813 0.018228253 -0.0032526597 0.0060799196 -0.014351081 0.026281293
0.04385082 0.04283148 0.011595026 0.020364506 0.030733943 0.021316208 -0.022907373 -0.036455955
0.01966283 0.07262727 0.07276937 0.012394475 0.06681226 -0.04457153 0.014299566 -0.0012243486
0.102954715 0.034318868 0.0053686067 -0.0552584 -0.03944766 0.043761857 -0.013657591 -0.008453999
-0.033080406 -0.03972473 0.104144976 -0.0244091 0.027527336 -0.022761352 0.038845435 -0.021171043
0.07182656 0.021828404 0.03436605 0.024380159 -0.008014133 0.0053938385 0.013121738 -0.026750548
0.08148251 0.021305678 -0.018568145 -0.01806541 -0.016824333 0.03989686 -0.029002016 -0.046265543
-0.04476138 0.06292814 -0.047574997 -0.037911437 -0.008033067 -0.01744655 0.01700599 0.0158036

net.2.weight f4 [1, 128]
00000000: ffea 72bd 256a 87bd 591b c3bd 94bd d4bd
00000010: 5456 093d 960f f33d c76e a63d 2f38 fbbd
00000020: a83a cc3d bc12 053d 2c5d bf3d e15a 473d
00000030: ddf5 d3bd dc63 b2bd f059 063d 4beb 443d
00000040: c6eb 923d 75cb 793c 4306 873d a03e 56bd
00000050: e23b 923d 0613 b7bd 83dd 923d 60cd a43d
00000060: a431 d73d 472a eabd a487 0fbe 9b42 9dbd
00000070: a2dc 54bd 3d95 b8bd c167 cf3d 0898 6ebd
00000080: 9c7d b2bd af16 83bc c797 88bd 37e5 dfbd
00000090: 43fc c23d bb10 8fbd 9467 2c3d 0b9a 073d
000000a0: 0b38 8bbd ff72 b83d 3c2e 92bd 0887 993d
000000b0: 68f5 08be 4d66 f23d 993b c1bd 1015 963d
000000c0: 5450 943d 0397 d73d 565c 013e 688f d03d
000000d0: 5a28 64bd b40e c03d 13a8 193d c4c7 8b3d
000000e0: 0e27 53bd 207e 8a3d 7ebe 403d 7d9c 793d
000000f0: 333d 623d f517 1dbd 63da 583d 58dc 7ebd
00000100: f214 01bd 3427 c13d d995 90bd e56d efbc
00000110: e137 c03c e24c 2dbd 8495 47bd d37d e93d
00000120: e2ba 8abd 1e5c c93d 8d98 17bd fec2 b33d
00000130: b674 aabd 8895 21bd e836 583d 2e61 ec3d
00000140: 30e8 9d3d d338 4d3d 2604 353d 222d cebd
00000150: 6549 a93d a2a9 ab3d 3bb6 07be a922 afbd
00000160: f9cb 223d 084b 35bd cb3a a03d 9644 443d
00000170: 5541 b53d 0cf4 0f3d 8fc3 a4bd f1c8 8c3d
00000180: b6c1 b73d 7a15 43bb dd15 773d be4e c6bd
00000190: 51a3 08bd 143c ab3d 8be5 83bd 84bc e73a
000001a0: a4d4 993d 83d1 e0bd 9ef8 ba3d 4374 2fbd
000001b0: 3fba 23ba 5039 b13d ff73 663d 69d0 62bd
000001c0: 8ec5 f93d 39b3 94bc 5461 31bd 474c 7dbd
000001d0: 2d9e c0bd bf92 9a3d 0648 f33d 0d9b 2d3d
000001e0: 850c 983d 28b7 b23d 3c7c adbd 7c8e 973c
000001f0: 5239 273d 0246 94bd fd0e 9abd db2d b83d
-0.05930614 -0.06612042 -0.095267005 -0.10387722 0.033529595 0.11868207 0.08126598 -0.122665755
0.09972125 0.03248857 0.09343943 0.048670653 -0.10349629 -0.08710453 0.032800615 0.048075955
0.071738765 0.015246262 0.06592991 -0.052305818 0.07140328 -0.08939175 0.07171156 0.08046985
0.10507515 -0.11433845 -0.14016587 -0.076787196 -0.051968224 -0.0901284 0.10127211 -0.058250457
-0.08715364 -0.016002027 -0.06669574 -0.10932391 0.09520771 -0.06985613 0.042090967 0.03310589
-0.06797799 0.09006309 -0.07137725 0.07496458 -0.13374865 0.118359186 -0.094351955 0.07328236
0.07241884 0.1052685 0.1263288 0.101836026 -0.055702545 0.093778044 0.037513804 0.06825212
-0.051550917 0.06762338 0.047056668 0.060940254 0.055234145 -0.038352925 0.052942645 -0.062221855
-0.031514116 0.094313055 -0.07059831 -0.029227206 0.023464145 -0.04230965 -0.048726574 0.11400952
-0.06773926 0.09832023 -0.037010718 0.08777426 -0.08323042 -0.039449245 0.052786738 0.11541973
0.07710302 0.05010302 0.04419341 -0.10067202 0.08265952 0.08381964 -0.13253109 -0.08551533
0.039745305 -0.04426101 0.07823714 0.04791697 0.08850352 0.03514485 -0.08045112 0.06874264
0.08972494 -0.002976744 0.060323585 -0.09682988 -0.033358876 0.08361068 -0.06440266 0.0017680083
0.07511261 -0.10977461 0.09129451 -0.042835485 -0.00062457094 0.086535096 0.056262966 -0.055374537
0.12195884 -0.018151866 -0.04330571 -0.061840322 -0.0940517 0.07547521 0.11878972 0.042384196
0.07424263 0.087263405 -0.084709615 0.018500559 0.04082615 -0.072399154 -0.0752239 0.08993121
