task1/dqn_evaluation_results/best_model.pt (torch, 118312 bytes, 4 tensors)

fc1.weight f4 [64, 448]
000000 b4 d0 22 3d cb b9 79 3d 27 1d df bd 65 b2 94 3e
       0.039749816 0.0609682 -0.10894232 0.29042354
000010 51 43 11 3e 57 61 12 3e 23 c8 71 3e 30 6e 30 3b
       0.14185835 0.14294945 0.23611502 0.0026921146
000020 76 6a 23 3d 03 4a 8a be 9e 30 2f 3e d7 c5 b3 3d
       0.03989645 -0.2700959 0.1710839 0.08777969
000030 fc 8f ee 3d 7b ba 02 3e 2a 5c 12 3e e8 f4 0a 3d
       0.116485566 0.12766449 0.1429297 0.033924967
000040 f0 db 12 bd ab fc 93 3e 3b 33 96 3e 3d 5b d2 3d
       -0.03585428 0.28903708 0.2933596 0.102713086
000050 3f 30 d8 3d 95 06 6c 3d 89 61 e7 3c d9 3c 1b 3d
       0.10556077 0.057623465 0.02824475 0.037899826
000060 b2 7d 24 3d 3d 0e 77 3e 50 0f 3c 3e cc 7a 0e 3c
       0.040158935 0.24126525 0.18365216 0.008696269
000070 a8 27 86 be 63 83 27 bd 0c 03 42 3e 61 95 c3 bc
       -0.2620213 -0.040896785 0.18946475 -0.02387494
000080 79 e0 35 3d 3f f6 29 3e 96 1e 51 3e 4c d6 42 bd
       0.044403527 0.16597842 0.20421824 -0.04756765
000090 40 51 2b 3f 8b 36 de bc 37 29 4b bd ab c0 10 bd
       0.6692085 -0.027125617 -0.049599852 -0.035339992
0000a0 0e 83 a0 3c 81 8e 6a 3e 8b 04 24 3e ad cd 12 bf
       0.019593742 0.22905923 0.16017358 -0.57345086
0000b0 9f 3e d3 be 19 a1 2c bd dc ce 8f 3d ec 2f 64 3c
       -0.41258714 -0.042145822 0.07021877 0.013927441
0000c0 9b 69 2e 3c eb 70 19 3e 4b 6b 67 bc b7 b5 ba bd
       0.0106452955 0.14984481 -0.014124702 -0.091166906
0000d0 ac 3d 0e be ab 71 26 3e 7d 0e 44 3d 3c 92 0e bd
       -0.13890713 0.16254298 0.04786538 -0.03480743
0000e0 73 da 25 bc 76 f3 5c 3e c7 65 91 3e 66 a1 2a 3e
       -0.010122883 0.21577248 0.28397962 0.16663131
0000f0 48 34 b3 3d b8 ed f6 3c 40 78 16 3c f1 56 20 bc
       0.08750206 0.03014265 0.009183943 -0.009786353
000100 9d 0b f0 bc 7e c9 8b 3d cb df ed 3d 90 78 96 be
       -0.029302413 0.06825541 0.11614951 -0.29388857
000110 77 93 68 be e6 ce 03 be 58 66 8c be db 8d c3 3c
       -0.22712503 -0.12871894 -0.27421832 0.023871353
000120 5c 43 41 bc 3b 3f 48 3e ea e7 2a be 8e f3 04 3e
       -0.011795845 0.1955537 -0.1669003 0.12983534
000130 02 6a 16 be d7 b6 80 be 99 ed 46 bc d1 5a 94 bb
       -0.14688876 -0.25139496 -0.012141609 -0.0045274277
000140 ca 82 7c 3c 18 4c cf be 82 f5 7c be 98 c0 ab 3d
       0.015412042 -0.40487742 -0.24703029 0.08386344
000150 17 63 c0 3d ce 59 c2 bd 12 6b da 3d 42 3e af bc
       0.093939 -0.09489785 0.10664953 -0.021391992
000160 a4 0d cf 3c 03 2e a8 bf 9a 8a fb bd 17 45 66 bf
       0.025275059 -1.3139042 -0.122822955 -0.8994917
000170 8b 5f ee be 37 03 fc be 26 ef 21 3e 4b 4b 9b bb
       -0.46557269 -0.49221203 0.15813884 -0.0047392
000180 4f f5 30 39 12 1f d6 3d 97 48 27 3f 9e f0 34 3f
       0.00016876053 0.10455145 0.6534514 0.7067965
000190 cf ab 36 bd d7 2c b1 3e a2 d2 45 be 2a ec 83 bc
       -0.044597443 0.34604523 -0.19318631 -0.016103823
0001a0 6d 68 e8 bb 66 c2 b6 3e c6 01 a8 3e a5 e1 46 be
       -0.0070925266 0.3569519 0.32813853 -0.19422014
0001b0 56 d2 35 be 4b 8c 2e be 41 69 84 bd 5c 8e 85 3c
       -0.17756018 -0.17045705 -0.06465388 0.016303234
0001c0 83 11 8d bc c2 77 b7 3e 1a 42 05 bd 80 8e 06 be
       -0.017220264 0.35833555 -0.032533742 -0.13140297
0001d0 4c 6b 38 bd 6f bf 14 3e 8c 29 a9 39 b2 d2 0b bd
       -0.0450242 0.14526151 0.00032265147 -0.03413648
0001e0 c9 61 41 39 74 1e b4 3e b1 fc 78 3e 5e 8f 84 3e
       0.00018442342 0.35179484 0.24315144 0.2589063
0001f0 26 3d 09 3e 9f c5 e7 bd a6 a4 71 3d ee 4d 99 3c
       0.13402233 -0.1131699 0.05899491 0.018713918
000200 74 88 84 bb 90 a1 ab bb 7a c3 e6 3d c1 b3 e5 be
       -0.004044587 -0.0052377656 0.11267753 -0.44863704
000210 eb 17 9b be c6 76 a6 3d 1d 9d aa 3e 18 67 31 bd
       -0.30291685 0.08128123 0.33322993 -0.04331121
000220 c1 cb 0b bd b9 26 94 3e 85 b9 03 be bd 3a f6 bd
       -0.03412986 0.28935793 -0.12863739 -0.12022922
000230 75 73 75 bf 59 22 09 3e ed 37 02 3e ee f3 fc 3c
       -0.958793 0.13392009 0.12716646 0.030878033
000240 bc f8 37 3d fa 2a af be 10 68 94 be 10 93 d7 3c
       0.044914946 -0.34212476 -0.28985643 0.026315242
000250 f8 7b 80 3e ea 69 72 3d a5 05 9b 3c 38 89 2b bd
       0.2509458 0.05918304 0.01892359 -0.04187891
000260 eb 06 ad bc 05 78 7c be 4a b3 6c be 60 da 18 3d
       -0.021121463 -0.24655159 -0.23115268 0.037317634
000270 26 ba 79 be 3d 58 e3 bd 65 27 45 3e cc bb 20 3d
       -0.24387416 -0.111008145 0.19253309 0.039241597
000280 e2 24 10 3c f2 3b 0a be 46 71 65 be cc ab 4e bc
       0.008797856 -0.1349943 -0.22406492 -0.012614202
000290 d3 5b 28 3d 7d 14 d6 bc 17 e7 40 bd 58 21 d3 bc
       0.041103195 -0.026132816 -0.047095384 -0.025772735
0002a0 ef 60 2c 3d 67 18 82 be 76 2e 4d be 07 f6 07 c0
       0.04208463 -0.25409243 -0.20037255 -2.1243913
0002b0 a2 d2 3b 40 0a db 92 3e 60 8e 82 3d d6 71 8b 3c
       2.934731 0.2868274 0.06374812 0.017022055
0002c0 93 d5 d9 bc d1 4d 4b be 0a 5c 44 3c 6d 82 8d bf
       -0.026591098 -0.19853903 0.011984834 -1.1055428
0002d0 d6 8d fb 3f 2a 99 6c 3e fd d4 bf 3d 9b e1 25 bc
       1.965266 0.23105302 0.09366796 -0.010124589
0002e0 e1 ba 20 bd 0e b5 fc bd b9 1b 82 be 22 8a d1 3d
       -0.03924072 -0.12339221 -0.25411776 0.10231425
0002f0 08 a8 87 be 12 e0 04 bb 6c 07 9b 3d bf c4 6d 3c
       -0.26495385 -0.0020275158 0.07569775 0.01451224
000300 21 a8 80 3c 9f 39 a1 3f 76 ec 11 3e c0 6c 21 3e
       0.01570517 1.259571 0.14250359 0.15764141
000310 5e 55 9c 3e 57 3e 7e bd f8 d1 45 3f fa f5 2c bd
       0.3053388 -0.06207117 0.7727351 -0.04222677
000320 69 46 11 3d 2d b0 82 3f 95 45 9f 3e 37 7a d6 3e
       0.03546754 1.0210015 0.31107774 0.41890118
000330 d6 2e 44 3d 9b f8 8b be d6 37 13 3e c3 e3 36 3d
       0.04789623 -0.27338108 0.14376768 0.044650804
000340 3a 15 d2 bc 1b 3f 46 3e 19 27 67 3f 96 30 bc 3e
       -0.025644887 0.1936001 0.90294033 0.36755818
000350 64 bf 38 3e b1 84 53 3f d8 be 1a 3f 40 59 2b bd
       0.1804176 0.82624346 0.60447454 -0.041833162
000360 bf a1 cb 3c 5b 85 6a 3e 78 16 26 3f c3 d7 83 3d
       0.0248574 0.22902434 0.64878035 0.06437638
000370 20 d0 d2 be 0e 9e 23 3f 45 ae 67 bd e7 5e 26 bc
       -0.41174412 0.6391305 -0.05656268 -0.010154462
000380 f6 9c 3f bc c6 7b c3 be 4c b2 20 bd ab 48 8b 3e
       -0.011695137 -0.3818037 -0.039232537 0.2720388
000390 c5 c4 f1 3b 94 ab 9f 3e 81 35 ca 3e 84 2c be 3c
       0.007378193 0.3118559 0.39493945 0.023214586
0003a0 2c ef f4 3c ec c3 44 3e cd 3c 0f 3e e9 f1 f3 3f
       0.029899202 0.19215363 0.13988037 1.90582
0003b0 27 ab 76 3f 3a 22 ec 3e be 24 c9 3e f2 cd 26 3d
       0.9635491 0.46119863 0.39285845 0.04072375
0003c0 04 44 00 bd fb 90 a3 3c 52 a9 5f 3e 50 ac 88 3f
       -0.031314865 0.019966593 0.21841934 1.0677586
0003d0 a9 24 a0 3f 01 14 b1 3e 00 d0 90 3b fe 92 cb bc
       1.2511188 0.34585574 0.004419327 -0.024850365
0003e0 ee 1b a1 bc 19 05 37 3f 2f e7 30 3f d0 ec b2 3f
       -0.019666638 0.71492153 0.6910276 1.397852
0003f0 1b fa 53 3f fb 46 00 3f 9a 97 8a 3e b6 5f f9 3b
       0.82803506 0.5010831 0.27068788 0.0076102866

fc1.bias f4 [64]
000000 69 28 3c 3f 37 67 27 3f e8 ac 07 3e 36 d3 43 3f
       0.7349916 0.6539187 0.13249552 0.7649416
000010 7e de 0d 3f e4 2f 48 3f 23 5b 41 3f a2 8c 4b 3f
       0.5541762 0.78198075 0.7552969 0.79511464
000020 a8 14 49 3f 6a cf 41 3f 9b e3 41 3f df a3 27 3f
       0.78547144 0.75707114 0.75737923 0.6548442
000030 cd a1 1a 3f 77 c1 38 3f 90 49 3c 3f 1d f3 f6 bc
       0.6040314 0.72170204 0.7354975 -0.030145222
000040 f1 22 3b 3f ad 84 3c 3f 71 7c 24 3e 43 93 32 3f
       0.7310019 0.7363995 0.16063096 0.69755954
000050 7d 2d 1f 3f b1 7e 0d 3f 99 ce 4c 3f 89 39 45 3f
       0.62178785 0.5527144 0.80002743 0.77040917
000060 58 47 4d 3f 44 39 35 3f c5 de d9 bc fe ab 49 3f
       0.80186987 0.70790505 -0.026595483 0.78778064
000070 fd d2 60 3f ea 2e ce bd 1c 47 40 3f 3d 2e 42 3f
       0.8782194 -0.10067542 0.75108504 0.75851804
000080 e8 ff 2e 3f 66 58 bb 3d 8a 80 3f 3f d1 47 43 3f
       0.6835923 0.0914772 0.7480551 0.7628146
000090 75 ca 47 3f c7 e4 46 3f 68 6a 9a 3e 6c 24 3b 3f
       0.780433 0.77692837 0.30159307 0.7310245
0000a0 55 1d 37 3f 48 99 33 3f 87 cc ca 3d 8b 20 43 3f
       0.7152913 0.70155764 0.09902292 0.7622153
0000b0 cb d9 09 3f fb ea 34 3f 13 3a 69 bd dc 39 b4 3e
       0.5384795 0.7067105 -0.05694015 0.35200393
0000c0 1f 34 34 3f a9 26 91 3e b3 42 11 bd da 50 50 3f
       0.7039203 0.28349808 -0.035464 0.8137337
0000d0 d9 c8 44 3f e9 f4 4a 3f fd 52 46 3f 0f 3a 3f 3f
       0.7686897 0.79279953 0.7747038 0.74697965
0000e0 be 3b 46 3f e6 34 43 3f 8f 4a 3b 3f 58 52 50 3f
       0.7743491 0.7625259 0.7316064 0.81375647
0000f0 83 d4 2f 3f 86 2d 26 bd af 4a 32 3f b1 b2 36 3f
       0.6868364 -0.04057076 0.6964521 0.7136641

fc2.weight f4 [5, 64]
000000 44 a7 6b 3f 19 d9 23 bf 98 e8 33 3f 26 fa 23 3f
       0.920521 -0.6400314 0.70276785 0.6405357
000010 c4 35 a6 bf c1 0c 88 3f 06 c3 3d 3f 12 66 e3 3f
       -1.2985158 1.0628892 0.7412571 1.7765524
000020 bc 9f ec 3e 3c 12 a2 3f f3 44 68 3f 7e 72 3d bf
       0.46215618 1.2661815 0.9073021 -0.74002826
000030 b5 e2 22 be 93 8f bf 3f 0f d3 9a 3f 3b 84 07 c0
       -0.15906794 1.496569 1.209566 -2.1174457
000040 0c 49 6c 3f a8 f6 9e 3f d6 06 3f bf c3 48 a3 3f
       0.9229896 1.2419024 -0.74619806 1.275658
000050 e0 03 f3 be be 73 bf 3f b5 30 73 3e d2 6f b7 3f
       -0.47463894 1.4957197 0.23749049 1.4331
000060 43 fd 5b 3f e3 51 85 3f a2 8d 06 c0 ee 2e 96 3f
       0.8593332 1.0415615 -2.1023946 1.1733072
000070 98 e1 ab 3f 0a 99 29 bd 5c 49 40 3f f4 94 8d 3f
       1.3428221 -0.041405715 0.7511194 1.1061082
000080 0b 99 c3 3f 75 e7 c5 bc cb 47 c0 3d 7a 63 a1 3f
       1.528108 -0.024158219 0.093886934 1.2608483
000090 41 5b c6 3e 31 64 82 3f 98 ec 5e 3f ad ff 95 3f
       0.38741496 1.0186826 0.87079763 1.1718651
0000a0 5e 17 8c 3f be 6c ad be 15 5e 96 3f 65 2a c7 3e
       1.0944631 -0.33872026 1.1747462 0.38899532
0000b0 0a ce fb 3f 5f 2c 95 be 96 56 90 3d 17 bf d2 3f
       1.9672253 -0.29135415 0.07047765 1.6464566
0000c0 0b 52 5e 3e ae 3d 88 bf 5c 2d 8b bf 1b 00 94 3f
       0.21710984 -1.0643823 -1.0873218 1.1562532
0000d0 c9 c3 1e 3f 30 95 2e 3f ab cd 65 3f 50 04 ae 3f
       0.62017494 0.6819639 0.8976695 1.3595066
0000e0 a3 ed e2 3d 26 8e 33 3f 2d 3e 93 3f 89 ca 89 3f
       0.11080482 0.70138776 1.150335 1.0764934
0000f0 29 d6 44 3f 92 0e 06 c0 a7 aa e8 3f 44 da 9b 3f
       0.7688928 -2.0946393 1.8177079 1.2175984
000100 38 5b 65 3f 5a cd 39 3f 67 40 b7 bf e4 e0 95 3f
       0.89592314 0.72578967 -1.4316529 1.1709256
000110 7c 9a 78 3f bf 4c 96 3f d8 e7 36 3f 14 2d a8 3e
       0.97110724 1.1742171 0.71447515 0.32846892
000120 3c 42 1f 3f 56 8c a5 3f 02 d6 9d 3f d1 a3 87 3f
       0.6221044 1.2933452 1.2330935 1.0596868
000130 75 a8 82 3f f0 0b 02 3f 20 ed 8b 3f b1 21 ac 3f
       1.0207659 0.50799465 1.093174 1.3447782
000140 f5 7a 62 3f e5 fd 70 3f 7a 0b af 3e 05 fd a7 3e
       0.8846887 0.9413741 0.34188443 0.32810226
000150 12 92 84 3f 33 11 d9 3e 73 16 8b 3f 11 69 85 3f
       1.0357077 0.42395934 1.0866226 1.0422689
000160 91 e9 73 3f aa 8c 91 3f bb 2c 2f 3f 79 d8 db 3e
       0.9527827 1.1371052 0.6842763 0.42938593
000170 59 b4 a5 3f c8 92 b0 bd 8f 21 80 3f f5 6f 2a 3f
       1.2945663 -0.08621746 1.0010241 0.6657708
000180 5e 4f b5 3f f6 f6 3b 3f e4 ff 38 3f 6b 96 78 3f
       1.4164846 0.7342371 0.7226546 0.9710452
000190 89 0d 4c 3f 3c 39 76 3f 88 68 1b bf 8f fc 31 3e
       0.79708153 0.9618108 -0.6070638 0.173815
0001a0 81 0f 5c 3f 42 64 40 3f 1a 6c 4a bf d2 10 9c 3f
       0.8596116 0.7515298 -0.790712 1.2192633
0001b0 a7 45 65 3e 16 95 28 3f 8f 2d 3f bd 9c 7f a8 3f
       0.22389852 0.6585249 -0.046674307 1.3163943
0001c0 3d 91 54 3f 48 79 d1 bc 53 52 9e bf f8 fc 47 3f
       0.83034116 -0.025570527 -1.2368873 0.78120375
0001d0 a7 f9 67 3f 0e 2d 59 3f e7 0a e5 3e e3 a6 58 3f
       0.90615314 0.84834373 0.4473488 0.8462965
0001e0 9f dd 77 3f 84 d3 35 3f 1c 62 9a 3f 8f 67 69 3f
       0.9682254 0.7102587 1.2061191 0.9117364
0001f0 64 22 f1 3e 6a 3a 0d bf 4e a0 bc 3f a2 3a 04 3f
       0.4709655 -0.5516726 1.4736421 0.51651967
000200 8c cf 90 3f a1 48 57 3f 08 78 46 be 41 2f 97 3f
       1.1313338 0.840952 -0.19381726 1.1811296
000210 ea f0 8e 3f 26 91 4e 3f 2a 01 91 3f 72 ad bc be
       1.1167271 0.8069023 1.132848 -0.36851078
000220 65 51 69 3f cc 66 74 3f 0d a3 28 3f d0 08 4a 3e
       0.91139823 0.95469356 0.65873796 0.19729924
000230 23 ce 12 be b8 8a c2 bd bf c3 74 3f 76 aa af bf
       -0.14336447 -0.09499115 0.95611185 -1.3723896
000240 40 4e 8d 3f 0c 10 89 3f fa 7c d9 3f c7 65 89 3f
       1.1039505 1.0708022 1.6991265 1.0734185
000250 8f fe 4e bd 9e cd 58 bf 8b e9 84 3f 48 f4 36 3f
       -0.050535735 -0.84688747 1.0383772 0.71466494
000260 a1 4e 94 3f 89 c7 8e 3f ea b2 63 bf ed 98 44 3f
       1.1586496 1.1154643 -0.88944876 0.76795846
000270 f6 1f 69 3f 1c 49 85 bd e8 44 93 3f 57 a7 41 3f
       0.91064394 -0.06508085 1.1505404 0.75645965
000280 ae 40 8e 3f 1e 56 cc bf c4 d2 8b 3f 29 3f a0 3f
       1.1113489 -1.5963781 1.0923696 1.2519275
000290 3d 31 10 3f 31 ed 4f 3f 57 07 bb 3f 5f bd 68 3f
       0.5632513 0.812213 1.4611615 0.9091396
0002a0 77 0d 62 3e 4d 5c 7f 3f 17 f4 92 bf e9 c3 10 3f
       0.22075449 0.99750215 -1.148074 0.56548935
0002b0 e4 03 08 bf ee 67 99 3f 48 c6 67 bd 4c 52 b7 bf
       -0.53130937 1.1984842 -0.05658558 -1.432199
0002c0 39 a6 89 3f ce dc cb 3f a3 34 c9 bf c6 8a 6a 3f
       1.0753852 1.5926759 -1.5719188 0.91618
0002d0 56 ea 88 3f 6b 4b 8c 3f ba a9 97 3f 73 42 b0 3f
       1.0696514 1.0960516 1.1848671 1.3770279
0002e0 fa 03 7e 3f f8 41 4b 3f a9 50 98 3f b8 ba 61 3f
       0.9922482 0.79397535 1.1899616 0.88175535
0002f0 12 94 9b 3f c6 2d 76 bf 95 4d 60 3f b0 b1 21 3f
       1.2154562 -0.96163595 0.8761838 0.63161755
000300 ac 9b 8c 3f 17 c9 19 3f 5c 37 2f bf c6 dc 80 3f
       1.0985007 0.60072464 -0.68443847 1.0067375
000310 33 1f 3a 3f 93 a8 aa 3e 5f 42 4f 3f f0 1f 06 3f
       0.72703856 0.33331737 0.8096065 0.5239248
000320 44 89 7d 3f c8 e9 37 3f 26 9c 9d 3f dc b5 43 3f
       0.99037576 0.71841097 1.2313278 0.7644937
000330 e2 70 d4 3f 46 de 3b 3f 11 15 28 3f df 74 7e 3f
       1.6596949 0.7338604 0.65657145 0.9939708
000340 98 a0 92 3f 30 8c 8b 3f 62 c4 6e bf 6a 40 87 3f
       1.1455259 1.0902157 -0.93268406 1.0566533
000350 69 ce ac 3f 30 f4 26 3f b3 7b 8d 3e bb b8 85 3f
       1.3500491 0.6521635 0.27633438 1.0447
000360 4f 4e 74 3e 3e e4 9a 3f 33 de 55 bf 34 62 79 3f
       0.23857997 1.2100904 -0.83542174 0.9741547
000370 99 98 5a 3e 77 fc b7 3d cf d9 81 3e cf b6 69 3f
       0.21347274 0.08983701 0.25361487 0.9129457
000380 ca 35 ad 3f 42 1e 8a 3f db f4 87 3f 2a 51 2c 3f
       1.353204 1.0790484 1.0621599 0.67311347
000390 5e 5e 9e 3f e7 f0 6a 3f 5c fe 63 be 9e 28 72 3f
       1.2372549 0.9177384 -0.22264999 0.94593227
0003a0 de 72 8d 3f 50 5b bd 3f 97 79 46 bf 0c c5 96 3f
       1.105068 1.4793491 -0.7752928 1.1778884
0003b0 49 53 b1 3d 09 b0 a2 3f e4 4c c5 bd e4 ef eb be
       0.086584635 1.2709972 -0.09633806 -0.4608146
0003c0 47 75 5e 3f 6c c2 50 bf db 45 60 3f 81 da eb 3e
       0.868977 -0.81546664 0.8760659 0.46065143
0003d0 77 f9 12 3f 57 4b 92 3f 7e c2 2c 3f 7e db e6 be
       0.57411903 1.1429242 0.6748427 -0.45089334
0003e0 86 af 2d 3f 39 9b 73 3f df d6 40 3f de 02 5b 3f
       0.6784595 0.95158726 0.7532787 0.8555125
0003f0 e6 70 a9 3f 51 8a 8f bf c0 bc 1e 3f 6c 17 86 3f
       1.3237579 -1.1214086 0.6200676 1.0475898

fc2.bias f4 [5]
000000 1b 23 17 3f 38 a7 16 3f 5b e0 10 3f 49 c3 d2 3e
       0.5903794 0.58848906 0.5659234 0.41164616
000010 01 68 f7 3e
       0.48321536
