task2/policies/policy400_false_0.3.pth (torch, 150235 bytes, 3 tensors)

net.0.weight f4 [128, 288]
000000 e5 ac 98 bc 29 78 91 bb af 4b f2 bc 2a 63 22 bd
       -0.01863713 -0.004439373 -0.029577104 -0.03964535
000010 da a0 52 bd c4 02 2b 3d ee 66 29 3d be 67 2e bd
       -0.05142293 0.041750684 0.041357927 -0.042579405
000020 21 ed 5a bc c7 b8 9a bb a2 c3 d7 b9 16 77 9a 3c
       -0.0133622 -0.004721734 -0.00041153753 0.018855613
000030 ee 31 17 3d 6b 29 37 bc 3f 78 f1 3b bb 8e 42 3b
       0.03691285 -0.011179308 0.007369071 0.0029687125
000040 1e 07 98 3c 7d e2 97 bc 85 ae 58 3d 7c 1e 59 3c
       0.018558081 -0.018540615 0.05290081 0.013251897
000050 07 d8 2e 3d 50 f8 1e bd 0b 55 44 3a 35 83 0c bd
       0.04268649 -0.038811028 0.0007489479 -0.034304816
000060 46 21 63 3d a2 1a ea 3c 2f 52 3c bd 6e be 37 3d
       0.055451654 0.028577153 -0.045976814 0.044859342
000070 9b ce fe 3c 4b 23 be bb 4d 75 18 3d 8b e1 ab 3c
       0.031104377 -0.005802547 0.03722124 0.02098157
000080 76 2d 12 bd fb 42 64 3d 55 e9 57 3b 55 13 75 3d
       -0.035687886 0.05572794 0.0032945473 0.05983289
000090 48 ad 3d 3d 31 ea 86 bd 76 79 02 3c 33 2b 6b b8
       0.046307832 -0.06587637 0.007963529 -5.60686e-05
0000a0 57 30 63 3d ed 31 70 3d df 94 50 3d 99 8d 02 3b
       0.055466022 0.058641363 0.050923225 0.0019920825
0000b0 9b 51 2e 3d c2 32 4f bd f0 e9 1c bd 93 bb 50 3d
       0.042558294 -0.050585516 -0.038309038 0.050960135
0000c0 5c 8b dc 3b 3e 32 5e bc 4e 1b 0e 3c 79 77 16 3d
       0.00673048 -0.013561783 0.008673502 0.03673503
0000d0 01 c2 2c bd 44 b8 14 bd 37 12 1f 3d 4e 79 1f 3c
       -0.042177204 -0.036308542 0.03883573 0.009733511
0000e0 9c 2f 04 3d e3 8c 4a bd ed c4 2c 3d 18 b2 28 bd
       0.032271966 -0.049450766 0.04217999 -0.04118547
0000f0 87 c3 f2 ba d5 3f 6d bc 36 fb 43 3b eb 4f 24 bd
       -0.0018521406 -0.014480551 0.0029904372 -0.04011528
000100 1f 32 e7 3c db d4 20 bd 0c 80 70 bd 7e 77 4c 3d
       0.028222142 -0.039265495 -0.058715865 0.049918644
000110 ff 03 38 3d fa 56 44 3d 4a b9 47 3d fd 8e 3d bd
       0.044925686 0.04793451 0.04876069 -0.046278942
000120 31 d3 33 bc ea 7b 2b 3d ee 49 31 bd 32 90 13 3d
       -0.010975645 0.04186622 -0.043283395 0.036026187
000130 2f 7d 82 bc da da a0 bc 3d 29 62 bd ea b3 57 3b
       -0.015928833 -0.019635607 -0.05521511 0.0032913634
000140 d8 fb 13 bb c5 41 e4 3c b3 57 69 3d 36 c3 c0 bc
       -0.002258053 0.027863393 0.056968402 -0.023530584
000150 91 dd 23 bb 1c ed 29 3c 9d c9 47 3d ff 72 cf bc
       -0.002500389 0.010371473 0.048776258 -0.02532339
000160 aa 28 9d 3c 5d 29 b5 bc 83 fc 33 3d de 7a c4 bc
       0.01918443 -0.02211445 0.043941986 -0.023984369
000170 d6 4f 00 bd f9 97 4f bd 0b 05 8e bc cd 61 5d 3a
       -0.031326137 -0.05068204 -0.017336389 0.00084450544
000180 69 09 39 3d 8c 24 26 3b 2a b3 b6 3c b1 e7 3f 3d
       0.04517499 0.0025351373 0.022302229 0.046851818
000190 91 07 20 3d bc a6 15 3d 79 43 f7 bb a4 ea d1 3c
       0.039069716 0.036535963 -0.007545885 0.02562458
0001a0 33 16 74 bd 64 e4 45 bd f0 55 68 3c 83 d5 8b 3d
       -0.059591483 -0.048313513 0.014180645 0.068278335
0001b0 86 16 d0 3c af fa 8e 39 36 72 db bc 14 88 03 3d
       0.025401365 0.00027271124 -0.026787858 0.032112196
0001c0 22 f8 46 3c 9b 95 a2 3c 3a b9 3b bd 0c 8c e8 3c
       0.01214412 0.019846728 -0.045830943 0.028387092
0001d0 24 a5 02 3d 1e ae 5c bd 64 87 17 bd 47 70 0e bd
       0.03189577 -0.05387699 -0.036994353 -0.034775045
0001e0 4d 5c 82 3d 47 43 29 3d d5 28 12 3d d0 cb 9c 3c
       0.06365261 0.041323926 0.03568347 0.019140154
0001f0 46 e3 d9 bc 98 69 85 3d 5d 2d 03 3d ad b0 af bc
       -0.02659763 0.06514281 0.032025684 -0.02144655
000200 e7 f9 30 bd 2f a1 39 bd a8 69 5d 3c 4c a0 05 3d
       -0.043207075 -0.045319732 0.01351396 0.032623574
000210 b8 7b fe 3c 6b 71 03 3d c2 15 42 3d ac b1 91 bc
       0.031064853 0.032090586 0.04738403 -0.017784916
000220 2a 14 25 bd 05 93 0e bd ec 21 26 bd 23 c0 de bc
       -0.040302433 -0.034808178 -0.040559694 -0.027191227
000230 20 55 0c 3d 36 f3 64 3b 01 60 f2 bb f3 c2 15 3c
       0.03426087 0.0034935004 -0.0073966985 0.009140718
000240 44 03 36 bd 65 9e 69 bd 8d be 1e 3d 3b 80 dc 3a
       -0.044436708 -0.057035822 0.038755942 0.0016822884
000250 ff 12 36 3d 97 36 0d bd 49 6e 2e 3d 0e 04 eb bc
       0.04445171 -0.03447589 0.042585645 -0.028688457
000260 dd 7b 31 3d 7b 2d 28 3d ea 60 88 3d 7b 2d 09 3d
       0.043331016 0.041059 0.0665911 0.03349064
000270 8a ea 80 bc 8a 7d 9d bc 47 e9 07 bd cf 64 30 bd
       -0.015736837 -0.0192249 -0.033181455 -0.04306489
000280 22 22 0b bd 93 97 3a bd 39 8b 3a 3d 96 41 10 bd
       -0.0339681 -0.04555471 0.04554293 -0.035218798
000290 e2 bb dc bb f3 1d 70 3d 70 a8 22 bd 15 9d e8 3c
       -0.0067362646 0.05862231 -0.039711416 0.028395215
0002a0 a3 2b 54 3c 99 4f 76 bd e9 b7 29 bd 07 af 0c bb
       0.012949857 -0.060134504 -0.041435156 -0.002146663
0002b0 eb 83 9f bb 97 3f bb bc a9 8a ff 3b 4d c2 78 3d
       -0.004868021 -0.02285747 0.007798512 0.060732175
0002c0 72 61 32 3d e1 55 63 3d b4 48 db 3b e7 be 10 bd
       0.043549962 0.055501822 0.0066920165 -0.03533831
0002d0 ca 61 40 b9 f6 a3 71 3d 3d e7 c2 bc 97 13 db 3b
       -0.00018346976 0.058994256 -0.023791904 0.006685685
0002e0 f6 5f fa bc fd 5e 64 3d 3a eb 68 bd 10 2b c7 bc
       -0.030563336 0.05575465 -0.056864955 -0.024312526
0002f0 6b 6f d3 bc a3 e4 26 bd a5 6e d0 bb 0c 57 86 3d
       -0.025809964 -0.04074539 -0.006360846 0.065595716
000300 7b 55 40 3c e2 1f 46 bd 16 62 d0 bb 79 72 8c bc
       0.01173913 -0.04837025 -0.006359349 -0.017144429
000310 23 99 82 3c 62 00 86 3d a6 19 8c 3c 95 2d 24 3d
       0.015942162 0.06543042 0.017102074 0.040082533
000320 c0 9d ff bb 29 db 64 bd c6 43 df 3b 2b a5 44 3d
       -0.0078007877 -0.05587307 0.006813499 0.04800908
000330 fb 7c 28 bd 45 b3 b1 bc 76 6b 1b bd 80 49 d1 3c
       -0.041134816 -0.021691928 -0.03794428 0.025547743
000340 8c 8f bc bc 26 ef 8e bc 34 11 dd 3a 67 d7 36 bd
       -0.023017667 -0.01744802 0.0016866089 -0.044639017
000350 0b 6e 5d bd 91 59 a9 3c 52 45 a4 3c e7 a6 46 3b
       -0.054060023 0.020672591 0.020052586 0.0030311884
000360 91 40 63 bc 7c 28 04 3d da cc b8 3c 0c da 8c 3d
       -0.013870374 0.03226517 0.022558618 0.06877527
000370 da 76 29 bd 53 8e 92 3d df 89 4e bd f3 3c 42 3d
       -0.04137311 0.071560524 -0.050424453 0.047421407
000380 a1 84 86 bc ce f5 d3 3c 21 20 4b bd 3f 6c 0e 3d
       -0.016420664 0.025874045 -0.049591187 0.0347712
000390 30 59 28 3d cd aa 17 3c 7a ff c4 3b 60 bc 8f 3d
       0.04110068 0.009257031 0.0060119005 0.070183516
0003a0 71 79 50 bb 68 3d 1f 3b 8a d6 f4 3c 88 16 e7 3c
       -0.0031810666 0.0024298076 0.029887456 0.028208986
0003b0 3a 3c cf 3c f6 77 af ba af 3d 17 3d ae ae 4c bd
       0.025297273 -0.0013387192 0.03692406 -0.049971275
0003c0 7a b4 cc bb 83 bb 51 ba 27 ee af 3c 18 c0 09 bd
       -0.0062471004 -0.00080006587 0.021475865 -0.03363046
0003d0 c0 4a e7 3c e8 88 61 3d 27 77 2b 3d b5 6f e7 3c
       0.028233886 0.055062205 0.04186168 0.028251508
0003e0 80 d2 da bc f6 3f 23 bc 82 4f 9e bc 27 40 f0 bc
       -0.026711702 -0.00996398 -0.019325022 -0.029327465
0003f0 99 ff 86 bc 16 dc d4 3a 36 50 43 3d 1f b2 86 3d
       -0.0164793 0.0016239907 0.047683917 0.06576943

net.0.bias f4 [128]
000000 f7 12 21 bb 88 98 33 3d ec c4 6d 3c f2 23 c9 bc
       -0.0024577954 0.043846637 0.014512282 -0.024553273
000010 07 29 19 ba 53 e3 01 3d 98 30 bc bc ea 01 ea b9
       -0.00058426004 0.031710934 -0.02297239 -0.00044633384
000020 6b ab 53 bd 0f e5 f4 bc bc b0 0a 3d c9 5a 8f 3b
       -0.05167715 -0.02989438 0.033859953 0.004374836
000030 09 f9 ea bb ee 9c 1b 3c 78 e3 5f bd 87 9c 5d 3c
       -0.0071708006 0.009497864 -0.05466029 0.013526089
000040 e5 a2 71 bd 3f d4 18 bd 78 7e ad bb 1b d1 c0 3c
       -0.05899324 -0.03731179 -0.0052946173 0.02353721
000050 a5 88 12 3d a2 83 30 3b b9 ae 28 3d 0e 7f ba 3c
       0.035774846 0.0026933928 0.041182254 0.022765663
000060 13 1e 48 b9 b2 e3 46 3d 92 a4 c0 bb 12 55 0c 3d
       -0.0001908469 0.04855699 -0.0058789933 0.034260817
000070 a8 cd d5 3c 37 9a 3b 3d dd 47 a4 3c c1 9b fb 3c
       0.026099041 0.045801368 0.020053798 0.030713918
000080 65 73 8b bc 68 40 d2 bc 7b 0d 9e 3d 7c 47 85 bc
       -0.017022798 -0.025665477 0.07717415 -0.016269438
000090 a6 1b 70 bc cd 21 51 3c 70 6b 33 3c be 42 04 bd
       -0.014655029 0.012764406 0.010950908 -0.032290213
0000a0 44 fd 37 3d ce 47 b8 3c 22 d0 83 3d 4b ca c4 3c
       0.044919267 0.022495177 0.064361826 0.024022242
0000b0 14 9d 4a bc 54 5f aa bc 83 ef 85 bc eb 5b 10 bd
       -0.012366552 -0.02079741 -0.01634956 -0.03524391
0000c0 3b f5 67 bd 3a c1 60 3d 50 7a ee bc 6f 1e 13 bd
       -0.056630354 0.054871775 -0.029111058 -0.035917696
0000d0 c2 38 bc 3c bb 17 99 b6 3c 34 56 3c 6c 58 22 bc
       0.022976283 -4.562518e-06 0.013073977 -0.009908777
0000e0 57 10 09 3d 19 9e 33 bd 7b 58 73 3d 58 bc 5c 3d
       0.03346285 -0.043851946 0.059410553 0.053890556
0000f0 0d f3 5b bd 30 b0 9a bc 3b cc 1f bd 43 b3 57 3d
       -0.05369859 -0.01888284 -0.03901313 0.05266119
000100 5b 33 4e 3c d7 b0 22 3c 92 86 63 3c ac a1 a2 3b
       0.012585486 0.009929857 0.0138870645 0.0049631204
000110 d8 36 e9 3c 2e 57 5f bd 6e 81 63 bd 3d 36 0d bb
       0.028468534 -0.0545265 -0.055543356 -0.002154722
000120 2b ce fe bc da 86 2a 3d e8 cd cd 3c 2a 29 9f bb
       -0.031104168 0.04163251 0.025122598 -0.004857202
000130 3a 7b 67 3c 68 4f 06 3d 0e 49 3b 3d aa a9 62 bd
       0.014128501 0.03279057 0.045723967 -0.055337586
000140 20 d8 50 bc 72 5c 33 bc 52 58 30 bd a2 29 96 bc
       -0.012746841 -0.010947334 -0.04305298 -0.018330399
000150 0f b9 bb 3c dc 8e a1 bc 14 5f 69 3d b1 4f 4e bb
       0.022915391 -0.019721441 0.05697544 -0.0031480605
000160 56 8a 83 bc 4b 00 4d bd ae 93 14 bd 3c 9f e8 3c
       -0.016057175 -0.050049108 -0.03627365 0.028396241
000170 0f dd d1 38 36 ba 2d 3b db 88 49 bd b4 2a 2f bd
       0.00010007072 0.0026508695 -0.04920278 -0.042765334
000180 b2 5c fb bb 62 d2 03 3d 63 05 e9 3b fd e7 5f bc
       -0.0076709623 0.03218306 0.007111238 -0.01366615
000190 16 f0 44 bd b0 a7 9e ba a1 7f 87 3d 97 71 95 bc
       -0.048080526 -0.0012104418 0.0661614 -0.01824264
0001a0 f6 d0 93 bc ec 3b 20 bc c6 82 15 bd 78 ed 2d bd
       -0.018043976 -0.0097799115 -0.03650167 -0.042462796
0001b0 11 91 b9 3c b5 2e 27 3d 39 4f 1c bd 7c 5d 28 bd
       0.02265218 0.040816028 -0.03816149 -0.04110478
0001c0 36 7a 7b bd 85 e1 54 bd c8 4a ed bc 30 09 5c 3d
       -0.061395846 -0.051972885 -0.028966323 0.0537197
0001d0 88 66 3f bc ce fb a0 bc ab 61 23 bc 53 12 f9 bb
       -0.01168216 -0.01965132 -0.009972016 -0.0076010614
0001e0 05 25 96 bc 85 66 7b bc 5d 50 a9 3c 34 4a 93 3d
       -0.0183282 -0.015344267 0.020668203 0.071918875
0001f0 0e 45 78 bc 1a 2e 05 bd 82 dc 95 3c 9d 5f 85 3d
       -0.015153183 -0.03251467 0.018293623 0.065123774

net.2.weight f4 [1, 128]
000000 12 02 32 bd a1 52 cd bd d7 02 5c bb cb e8 31 bd
       -0.043459006 -0.10025526 -0.0033571029 -0.0434349
000010 80 d1 6f bd a9 f1 99 3d c7 5d e2 3c fc aa 37 bd
       -0.058549404 0.07516796 0.027632607 -0.044840798
000020 04 c4 09 3c b3 41 74 3d d5 34 76 3d 1b bf b4 3d
       0.00840855 0.05963297 0.06010898 0.08825513
000030 c4 1d 01 bd df 17 8c bd f0 3f 11 3d 26 16 2f 3c
       -0.031522527 -0.068404905 0.035461366 0.010686433
000040 ff 28 9e 3d c0 7f b9 bd ab 6b 11 bd af 03 60 bd
       0.07722663 -0.090575695 -0.03550307 -0.054691013
000050 55 1f b5 bd 44 28 fc 3c ff 5b 8e 3c ff 1b bb bd
       -0.08843867 0.030780919 0.017377852 -0.09136199
000060 3d f2 b3 3d db c3 ac bc a9 ba 94 bd 01 4e c6 bd
       0.08786438 -0.021089485 -0.07262165 -0.09682847
000070 4a cb c7 bd 16 ec 23 b9 2e c5 ab bd 8c 8a c5 bd
       -0.09755571 -0.0001563284 -0.083872184 -0.09645566
000080 5f 4e 17 bd c0 fd a3 bc 4a 1f 0f bd b0 fd 03 3d
       -0.036939975 -0.020018458 -0.03494195 0.032224357
000090 03 2a 07 3d 12 ac d4 bb b1 eb bb bc 4c f4 b0 3d
       0.03299905 -0.006490239 -0.022939535 0.08640346
0000a0 85 a9 8d bd 8b 72 c8 bd a8 c6 a9 bd b7 6a 10 3d
       -0.06917099 -0.09787472 -0.08289844 0.03525802
0000b0 32 4f 89 3d d0 cf b1 3c bb 09 b5 bd 05 2d 81 3d
       0.067045584 0.021705538 -0.088397466 0.06307415
0000c0 66 4e 9d 3d b5 7e c0 bd ff 67 f0 bb 10 32 ab 3c
       0.07680969 -0.093991674 -0.007336616 0.020897895
0000d0 7c 2d c0 3c 2d 78 ba bc 0b c9 54 bc 65 0e 3d 3d
       0.023459189 -0.022762382 -0.0129873855 0.046156306
0000e0 3f 7a b0 3d ea a3 56 3c 65 7e 96 bb 5f 13 9a bc
       0.086170666 0.013100604 -0.004592704 -0.018808065
0000f0 98 cd 5a bd 88 0b bc 3d f6 a1 a4 3d c0 57 ba bd
       -0.053418726 0.09181887 0.08038704 -0.09098768
000100 f9 69 2c 3d 32 8c b7 3d 2e 80 16 3d 07 51 ce bc
       0.04209325 0.08962287 0.036743335 -0.025185121
000110 ac 94 83 bd 81 84 8d bd ba c5 85 3d ec 3d e8 bc
       -0.06424841 -0.06910039 0.06531854 -0.02834984
000120 4d 53 52 bd e6 61 8a bd 6d 06 cb 3d df 0d d5 bd
       -0.051348973 -0.06756954 0.09913335 -0.10403036
000130 95 30 a0 3c 1f c4 7d 3d 69 0d 86 3d 41 40 c1 3b
       0.019554416 0.061954614 0.065455265 0.0058975522
000140 e0 fb 6b 3d e0 7f 0a bc 7b bd 3b 3d c2 d7 44 bd
       0.057613254 -0.008453339 0.045835 -0.048057325
000150 89 59 e1 3c 6c 7f 9a 3d 20 8b bf bd 10 dd b6 bd
       0.027508514 0.07543835 -0.09352708 -0.08928883
000160 9f 55 c0 bd fc 51 78 3d 1b 86 0e 3d 96 19 5b 3d
       -0.09391331 0.06062506 0.03479586 0.053491198
000170 9b 7d 8e bd 2c 07 92 3d a9 c1 bb 3c ad d2 26 3d
       -0.06957551 0.07130274 0.022919493 0.04072826
000180 c5 f5 6b 3d 22 de d6 bd e0 b0 87 3d ec 39 9f 3d
       0.05760743 -0.10491587 0.06625533 0.077747196
000190 44 4f ee 3c 41 a4 9b 3d 91 68 3a bd 64 51 5f 3d
       0.029090531 0.07599688 -0.04550988 0.05452098
0001a0 ae 24 1e 3d 5d 69 9a bd d3 5f 91 bd 00 42 0d 3d
       0.0386092 -0.07539628 -0.07098355 0.03448677
0001b0 56 b4 91 3d e2 2d 54 3d 77 40 82 3d 2c 96 69 3d
       0.071144745 0.05180157 0.06359952 0.05702798
0001c0 4f 0f 9a 3d ac 36 b1 bd 04 6c 24 bd b3 d9 84 3d
       0.07522451 -0.08653006 -0.040142074 0.06486835
0001d0 2a a4 a3 3d 11 e9 70 bc 0c 69 84 3c dc 02 e3 bc
       0.07990296 -0.014704005 0.016163372 -0.027711324
0001e0 12 0f 9b 3c 3d 74 2d bd 3a 44 63 bc bf 22 91 bd
       0.018928085 -0.04234718 -0.013871247 -0.070867054
0001f0 98 0b bc 3d 8d 61 8c bd cc 9f 93 bd be df 0c bd
       0.09181899 -0.06854544 -0.07208213 -0.034393065
