task2/policies/policy.pth (torch, 150235 bytes, 3 tensors)

net.0.weight f4 [128, 288]
-0.039243285 0.0254225 -0.03562915 -0.049636655 0.050757658 -0.048029628 -0.05831549 -0.01673541
0.051565144 0.03550425 0.03637797 -0.023268566 -0.038904034 0.012451591 0.032939363 -0.009000256
0.049649395 -0.03211224 0.04682414 0.017642122 -0.04986666 -0.027297176 -0.0341635 0.050535794
-0.0010974647 0.052769236 0.03168305 -0.03818154 0.018875256 0.04286925 0.05064914 0.055133376
0.01977887 0.039902553 0.052961584 -0.035601646 0.04445991 -0.05665019 0.03867466 0.040215414
0.025813513 -0.042833492 -0.048096318 -0.019729016 -0.044559438 -0.0442514 0.017398022 -0.034241557
-0.056616414 0.034698542 -0.0128286695 -0.058484294 0.022750294 0.04293763 0.039425407 -0.020076342
-0.0018064382 0.04437086 0.026394961 -0.051321015 0.0006535215 0.00091758225 0.050909802 0.00046611842
0.04573344 -0.029800154 0.043685876 0.0058657452 0.053787198 0.02650359 0.0077817375 -0.028591119
0.025603635 -0.023295298 0.0059752217 -0.017818552 -0.0047419067 0.054257136 -0.03485084 -0.015714867
-0.027474295 0.058516815 -0.011615988 -0.052249596 -0.03775974 -0.004618525 -0.013496679 0.034914684
-0.035207704 -0.04600155 -0.027101716 0.03820049 -0.014105916 -0.03034079 -0.004680884 0.04266189
0.0377368 -0.012932529 -0.033591606 -0.029040886 0.04840678 0.052289356 0.03632812 0.005526417
-0.013804392 0.023677533 0.021919373 -0.05144795 -0.017826159 -0.014732502 0.055352896 0.01798793
0.004038839 0.02828654 0.038498223 0.05258384 -0.016694877 -0.058063928 0.0057832683 0.060262207
-0.01172941 -0.061708048 0.039214235 0.0025298516 0.012036978 0.024772516 -0.004853394 0.012162684
-0.055890203 -0.037143365 0.042920783 0.059424825 0.037369587 -0.024348512 -0.0042108377 -0.025831956
0.017103717 -0.009071628 -0.012419299 -0.020817718 -0.0072888145 -0.0156131 -0.06099322 -0.047858927
0.01903181 -0.02424558 -0.03088934 0.040294316 0.051165983 -0.035070293 0.03046216 -0.00738865
0.004206151 0.04392678 0.027623206 0.0058265654 -0.0027862245 -0.043025456 -0.03413501 0.011211905
-0.029296719 -0.051715355 0.01773246 0.009853349 0.020136302 -0.04246644 0.011996089 0.053573266
0.026062822 0.020071592 -0.04985705 -0.037006874 -0.015331453 -0.023504836 -0.043064248 0.041129094
-0.021305745 0.021979459 -0.032001205 0.026707822 0.016749132 -0.04701887 0.0019983805 0.013616594
-0.018278921 0.011941182 -0.041348416 0.040335096 0.009664534 0.045139026 0.04142292 -0.009894022
0.038707644 0.013664664 0.053339437 0.03148889 0.037880793 -0.032082945 0.0090390565 0.024714418
0.042918198 0.0044787745 -0.050809707 0.031435493 0.008802899 0.012807977 0.034717623 0.060257558
0.04664884 -0.03139257 -0.017233616 -0.011626994 -0.035959702 -0.031714726 -0.007202044 -0.038648847
-0.028228285 -0.052104283 -0.024094656 -0.018281171 -0.0004713585 0.06501053 0.013301476 -0.058649793
-0.033475284 0.011355152 0.033023953 -0.02016177 -0.06013398 -0.054911334 -0.046936728 0.036070857
0.01448837 -0.045426533 0.036520597 -0.012328765 -0.0017859605 -0.0333815 0.00080463104 0.031791992
-0.052910753 -0.034688376 -0.018819846 -0.0368179 -0.035144754 -0.025855495 -0.03979156 -0.0054915273
0.0140439235 0.041489754 0.0016446961 0.05324387 -0.036150616 0.00885662 0.049050905 -0.049881205
00000000: 91bd 20bd d942 d03c dfef 11bd ce4f 4bbd
00000010: 43e7 4f3d b7ba 44bd 39dc 6ebd b318 89bc
00000020: f935 533d e86c 113d 1101 153d b89d bebc
00000030: d659 1fbd c201 4c3c 6deb 063d cf75 13bc
00000040: 2a5d 4b3d 2088 03bd abca 3f3d 3686 903c
00000050: fc40 4cbd 549e dfbc 07ef 0bbd 9ffe 4e3d
00000060: ced8 8fba 8e24 583d 16c6 013d 3f64 1cbd
00000070: 48a0 9a3c ab97 2f3d 7975 4f3d 89d3 613d
00000080: 4c07 a23c dc70 233d 3fee 583d 08d3 11bd
00000090: 981b 363d 080a 68bd 5269 1e3d ebb8 243d
000000a0: dc76 d33c 2c72 2fbd a500 45bd bf9e a1bc
000000b0: f583 36bd f540 35bd 4c86 8e3c e040 0cbd
000000c0: 9de6 67bd 0f20 0e3d 572f 52bc 3a8d 6fbd
000000d0: d35e ba3c 5edf 2f3d 897c 213d 2477 a4bc
000000e0: 02c6 ecba 38be 353d 3f3a d83c fc35 52bd
000000f0: 1651 2b3a e789 703a cc86 503d 5b61 f439
00000100: fd52 3b3d 741f f4bc f6ef 323d 7035 c03b
00000110: f74f 5c3d 0f1e d93c f2fd fe3b ec37 eabc
00000120: b7be d13c c8d5 bebc cbcb c33b 36f8 91bc
00000130: ff61 9bbb bb3c 5e3d c1bf 0ebd 77bc 80bc
00000140: c611 e1bc 54af 6f3d fc50 3ebc ac03 56bd
00000150: f5a9 1abd ff56 97bb 2d21 5dbc b302 0f3d
00000160: f435 10bd 1f6c 3cbd 6b04 debc 1e78 1c3d
00000170: 801c 67bc 408d f8bc 1a62 99bb 3cbe 2e3d
00000180: e791 1a3d f5e2 53bc 5a97 09bd 27e7 edbc
00000190: 3046 463d 5d2d 563d cbcc 143d f216 b53b
000001a0: d12b 62bc 63f7 c13c 4290 b33c 16bb 52bd
000001b0: 2a08 92bc 9860 71bc b8b9 623d 6c5b 933c
000001c0: 3d58 843b 2db9 e73c 50b0 1d3d 2762 573d
000001d0: b2c3 88bc 71d4 6dbd 9281 bd3b 81d5 763d
000001e0: b62c 40bc 94c1 7cbd 1b9f 203d decb 253b
000001f0: bf36 453c bbef ca3c 3809 9fbb ff45 473c
00000200: 20ed 64bd a423 18bd b4cd 2f3d 7267 733d
00000210: da10 193d 8876 c7bc 11fb 89bb 8a9d d3bc
00000220: 181d 8c3c 2aa1 14bc 517a 4bbc eb89 aabc
00000230: 02d7 eebb 16ce 7fbc 07d4 79bd b907 44bd
00000240: 99e8 9b3c ab9e c6bc a40b fdbc a70b 253d
00000250: 6c93 513d dea5 0fbd c88b f93c 7d1c f2bb
00000260: c0d3 893b 91ec 333d 104a e23c c6ec be3b
00000270: 1799 36bb 763b 30bd 27d1 0bbd 23b2 373c
00000280: acff efbc 7bd3 53bd aa43 913c f16f 213c
00000290: e3f4 a43c 4af1 2dbd 3e8b 443c a46f 5b3d
000002a0: b381 d53c 2e6d a43c e836 4cbd 8594 17bd
000002b0: c630 7bbc 378d c0bc 2364 30bd fb76 283d
000002c0: 6389 aebc 440e b43c b213 03bd 5dca da3c
000002d0: 7a35 893c dc96 40bd 43f7 023b 2218 5f3c
000002e0: adbd 95bc f3a4 433c f55c 29bd 6a36 253d
000002f0: fe57 1e3c b3e3 383d 14ab 293d 891a 22bc
00000300: e88b 1e3d c1e1 5f3c 747a 5a3d 7ffa 003d
00000310: e428 1b3d 6869 03bd 8d18 143c e475 ca3c
00000320: feca 2f3d afc2 923b d71d 50bd 81c2 003d
00000330: 093a 103c 8dd8 513c 1134 0e3d a1d0 763d
00000340: db12 3f3d 7f95 00bd 832d 8dbc 267f 3ebc
00000350: 7b4a 13bd 4de7 01bd 20ff ebbb 414e 1ebd
00000360: 013f e7bc 4d6b 55bd 2862 c5bc 65c2 95bc
00000370: ab20 f7b9 3e24 853d 6fee 593c c43a 70bd
00000380: 611d 09bd f60a 3a3c 2044 073d 4c2a a5bc
00000390: 0c4f 76bd b5ea 60bd ba40 40bd 09bf 133d
000003a0: a160 6d3c 2c11 3abd 9f96 153d 97fe 49bc
000003b0: e416 eaba 0abb 08bd e0ed 523a 5238 023d
000003c0: f2b8 58bd 6615 0ebd 142c 9abc 5ece 16bd
000003d0: f2f3 0fbd e7ce d3bc 7afc 22bd 45f2 b3bb
000003e0: 7c18 663c 29f1 293d d892 d73a 3f16 5a3d
000003f0: ab12 14bd 5b1b 113c 9ae9 483d 3c50 4cbd

net.0.bias f4 [128]
0.047321074 0.00012349499 0.020851044 -0.027769525 0.015269118 0.04101844 -0.0037769405 -0.024950426
-0.03206797 0.028035462 0.010073555 0.0031642683 -0.0042786044 -0.016694544 0.009600879 -0.022864845
-0.016958747 -0.020935062 0.034054622 0.00037798687 -0.017675374 -0.011424908 0.03173431 -0.021043181
-0.018243967 0.028586535 0.0042004124 -0.017335242 0.027193619 -0.051814344 0.046283066 -0.025954204
-0.05082328 -0.010449165 -0.0037608712 -0.041497342 -0.055954773 0.014890864 0.042457663 -0.017114174
0.0320206 0.0630216 0.062481683 -0.013852378 0.0110901855 -0.01726134 0.00081752276 0.049714733
-0.04066714 -0.012903483 0.040148992 0.015114298 0.020588469 -0.061179254 -0.006017309 0.023634192
0.044293027 0.018249966 0.0056223427 -0.022895195 -0.042698782 -0.049067274 0.009486471 -0.020735119
-0.03566304 -0.033081725 0.045746256 -0.017255673 0.037916753 0.017367162 0.012352066 -0.037603535
-0.0313517 0.056079097 0.0064463764 0.04630156 0.060303796 -0.013447901 -0.06475365 -0.017457182
-0.028609594 -0.038157947 0.049604833 -0.04493988 -0.011149196 0.042150818 -0.024723334 -0.02058966
-0.027312754 -0.0111958515 -0.024384007 -0.028992709 -0.036307093 -0.02049902 -0.04831619 -0.02506305
-0.03445813 0.022692248 -0.00870221 -0.04431813 -0.02386962 0.046889 -0.001806455 -0.017891398
-0.04869835 0.018883506 0.0147457905 0.0509978 0.0056976555 0.047543872 0.05035497 0.0146219395
0.0006052791 0.055839796 0.047548324 -0.043529626 -0.0031081827 -0.054299414 0.019685153 -0.009010032
-0.008475712 -0.026802612 0.014264865 -0.018068094 -0.05368305 0.008189977 0.021706883 -0.03603154
00000000: bed3 413d 6f7e 0139 cfcf aa3c ea7c e3bc
00000010: 532b 7a3c f402 283d 8c86 77bb d664 ccbc
00000020: b459 03bd a0aa e53c 8d0b 253c 9d5f 4f3b
00000030: 8933 8cbb ffc2 88bc 014d 1d3c 0e4f bbbc
00000040: 12ed 8abc 0280 abbc dc7c 0b3d 8a2c c639
00000050: f2cb 90bc 8a2f 3bbc d6fb 013d c062 acbc
00000060: 5f74 95bc 4f2e ea3c 9da3 893b a302 8ebc
00000070: 27c5 de3c 473b 54bd 5093 3d3d e99d d4bc
00000080: 122c 50bd f932 2bbc f378 76bb 1ef9 29bd
00000090: d530 65bd cff8 733c 16e8 2d3d 0633 8cbc
000000a0: 0828 033d 7811 813d cbec 7f3d 16f5 62bc
000000b0: 9cb3 353c a767 8dbc 064f 563a ada1 4b3d
000000c0: 9692 26bd 2169 53bc 4573 243d f6a1 773c
000000d0: 26a9 a83c 1997 7abd d92c c5bb 7e9c c13c
000000e0: 9b6c 353d f480 953c a13b b83b b48e bbbc
000000f0: ebe4 2ebd c4fa 48bd 256d 1b3c b2dc a9bc
00000100: 6813 12bd b480 07bd 6d60 3b3d c55b 8dbc
00000110: 994e 1b3d 9445 8e3c 5260 4a3c 2a06 1abd
00000120: a46a 00bd 32b3 653d 203c d33b b4a6 3d3d
00000130: 1d01 773d 9654 5cbc 909d 84bd 5d02 8fbc
00000140: ab5e eabc 824b 1cbd 702e 4b3d e112 38bd
00000150: 1eab 36bc 56a6 2c3d 9788 cabc a6ab a8bc
00000160: ffbe dfbc ce6e 37bc f8c0 c7bc 1e82 edbc
00000170: bfb6 14bd 90ed a7bc 32e7 45bd 0751 cdbc
00000180: f823 0dbd 18e5 b93c b793 0ebc ed86 35bd
00000190: 398a c3bc ae0e 403d 92c6 ecba fb90 92bc
000001a0: ec77 47bd 95b1 9a3c 5498 713c 12e3 503d
000001b0: 66b3 ba3b 5dbd 423d 0341 4e3d dc90 6f3c
000001c0: 98ab 1e3a 45b8 643d 08c2 423d 1f4c 32bd
000001d0: a7b2 4bbb 1069 5ebd c242 a13c d09e 13bc
000001e0: b6dd 0abc 2791 dbbc 2eb7 693c 8a03 94bc
000001f0: c2e2 5bbd 412f 063c a2d2 b13c cf95 13bd

net.2.weight f4 [1, 128]
-0.050273765 -0.07685493 -0.087514885 -0.039804745 -0.036408685 0.029314682 -0.070378125 0.070133016
0.064656146 0.045667607 0.055932663 0.048884694 0.06466248 -0.008026953 -0.017016292 0.045706503
-0.05101904 0.0329426 -0.007999702 0.061097413 0.050597645 0.044358656 0.051553734 -0.07955577
0.09137321 0.060694627 0.10044319 -0.08750346 -0.10111008 0.06859995 0.06664573 -0.02478586
-0.091752775 -0.0785466 0.072261855 0.012093347 -0.008356132 -0.007729674 0.0049207876 0.083530374
0.022706304 -0.08576877 -0.0006215841 -0.037481595 0.050727163 -0.0605993 -0.08121805 -0.007808043
0.042235155 -0.07895582 0.032716636 0.06602153 0.035161525 -0.03858892 -0.039651133 -0.00793974
-0.059080224 -0.022918152 0.04549492 0.0032591692 0.010067554 0.049423117 -0.069405526 0.007005683
-0.0769045 0.018736565 -0.037636027 0.084525205 0.025930854 -0.029346058 0.0155277215 -0.06645922
-0.0048325122 -0.026760384 -0.07597889 0.00829011 -0.030539474 0.057392593 -0.013695469 -0.09746072
-0.056724828 0.06431673 -0.013164418 -0.07584031 -0.003975229 0.088936396 -0.06441906 -0.021302182
0.020889701 0.013788994 0.036676265 -0.04706204 0.011308505 -0.06933237 -0.0852597 0.027139904
-0.021242315 0.083175406 0.0035800394 0.073182054 0.053127218 -0.06191435 0.033355173 0.030432442
-0.030338865 -0.034334168 0.0026118418 0.057128012 0.071657635 0.059998017 -0.008855431 -0.048907872
0.07851925 -0.0338919 0.023970662 0.01431759 -0.02340413 -0.005823436 -0.05777487 -0.03497975
0.01836821 0.0080462955 0.03297381 -0.060765285 -0.057517592 -0.08571669 -0.09115841 0.05378498
00000000: ddeb 4dbd 1e66 9dbd 013b b3bd 4d0a 23bd
00000010: 4621 15bd 5825 f03c 6822 90bd e6a1 8f3d
00000020: 716a 843d f50d 3b3d a619 653d 513b 483d
00000030: c36d 843d 7b83 03bc c065 8bbc be36 3b3d
00000040: 57f9 50bd d2ee 063d 2f11 03bc 4841 7a3d
00000050: 7a3f 4f3d 6cb1 353d 022a 533d 23ee a2bd
00000060: e121 bb3d ee9a 783d 29b5 cd3d 0435 b3bd
00000070: cd12 cfbd 217e 8c3d 8e7d 883d b70b cbbc
00000080: e1e8 bbbd 0add a0bd 06fe 933d 2c23 463c
00000090: 28e8 08bc 3549 fdbb 8f3e a13b f911 ab3d
000000a0: 9202 ba3c 89a7 afbd cef1 22ba 4d86 19bd
000000b0: 49c7 4f3d f936 78bd a655 a6bd 9dda ffbb
000000c0: c5fe 2c3d 97b3 a1bd e101 063d 4c36 873d
000000d0: 8805 103d 6a0f 1ebd 3a69 22bd af15 02bc
000000e0: 1bfe 71bd d9be bbbc e258 3a3d c997 553b
000000f0: 62f2 243c e56f 4a3d 7c24 8ebd ee8f e53b
00000100: 1b80 9dbd 6d7d 993c 3c28 1abd 8d1b ad3d
00000110: f16c d43c 2567 f0bc fc67 7e3c c61b 88bd
00000120: 0d5a 9ebb 9838 dbbc d29a 9bbd 3ed3 073c
00000130: eb2d fabc 7f14 6b3d f662 60bc 7c99 c7bd
00000140: 4b58 68bd 7db8 833d 92af 57bc 2a52 9bbd
00000150: a342 82bb 4924 b63d 24ee 83bd ea81 aebc
00000160: e120 ab3c 3ceb 613c da39 163d 20c4 40bd
00000170: 4f47 393c 21fe 8dbd a39c aebd 8154 de3c
00000180: 5d04 aebc de57 aa3d 189f 6a3b 79e0 953d
00000190: ed9b 593d e799 7dbd 6f9f 083d 754d f93c
000001a0: 3689 f8bc fca1 0cbd 6f2b 2b3b 10ff 693d
000001b0: 3dc1 923d 7bc0 753d 5f16 11bc 9f53 48bd
000001c0: b3ce a03d 3cd2 0abd 1f5e c43c 5394 6a3c
000001d0: 05ba bfbc 86d2 bebb 58a5 6cbd ed46 0fbd
000001e0: ee78 963c 9cd4 033c 8c0f 073d 05e5 78bd
000001f0: 9197 6bbd 3b8c afbd 43b1 babd a44d 5c3d
